backend/models/eegnet_gesture.pt (torch, 25697 bytes, 18 tensors)

block1.0.weight f4 [16, 1, 1, 64]
0.07085326 -0.01311597 0.007800155 0.037941527 -0.015336817 -0.0023399738 0.11982072 0.03981938
0.05780233 -0.062436927 0.061029617 0.022194289 0.028318912 0.015864149 -0.03176821 0.11001323
-0.078426875 -0.022680456 -0.027985157 -0.086323716 -0.013271258 0.101357944 0.0873292 -0.14543085
0.050622933 0.08891566 -0.09926655 -0.04211867 -0.10140038 -0.03703388 0.009630237 0.024821557
0.012590027 -0.010396669 0.023145013 -0.10552214 -0.08409124 0.09964459 -0.02185053 0.08111385
-0.08585909 -0.11065722 -0.0503831 -0.017815573 0.13837177 0.031182373 -0.07175701 -0.040781867
0.083803006 -0.06986445 -0.034103468 0.074997365 -0.11401548 -0.07983915 -0.07099857 0.067247756
-0.0010694631 -0.13300286 -0.02218885 -0.074446075 -0.12140779 -0.06451323 0.05139684 -0.08648727
-0.016920997 -0.01313467 -0.035896543 0.037690982 0.059765987 -0.045401465 0.110476874 0.016177975
-0.08146224 0.037336808 0.026488634 0.13292772 0.0540377 0.100322686 0.105499186 0.015083711
0.07959006 -0.011829471 -0.0019567567 -0.01859948 -0.018282136 0.08944552 -0.025354069 0.06768149
0.07657589 -0.02145554 -0.031847984 0.12441864 -0.0033718336 -0.09543534 0.009511603 0.09172602
0.050033305 -0.0879293 -0.080063015 -0.10946865 0.022822937 -0.043968156 -0.0020053627 0.105569065
0.1201701 -0.02873271 0.1416927 -0.0046659997 -0.07282741 0.08771297 0.09769792 0.019525357
0.07117474 0.05935265 0.10918412 0.12973998 -0.005082017 0.077419706 0.07167525 0.0060128774
0.122568674 -0.0402251 -0.03722954 0.026295466 0.09694525 0.058284074 0.13919814 -0.049380165
0.117422774 0.005939294 0.03463683 -0.014096775 0.03608819 -0.027266065 -0.005147171 0.055957004
0.10142258 0.107278235 -0.04603827 -0.013737193 0.119088694 0.083750576 0.10170645 0.15448412
0.15365757 -0.03884567 0.1272522 -0.035968203 -0.033632062 0.11632447 0.07463927 0.12178939
0.023578992 -0.0016955035 0.06319106 0.12773319 -0.055738915 0.11181062 -0.0026083642 -0.054726433
-0.06743197 0.11864646 0.033230204 -0.07754557 0.09625448 0.009409695 0.012001888 -0.118694864
0.052692786 0.059422158 -0.10144945 -0.066507086 -0.13099752 0.016685713 0.037411325 0.0060185874
-0.06801458 -0.05590592 -0.12991075 -0.091743246 0.03909209 -0.09880732 0.025237134 -0.041962873
0.07192162 -0.1378761 -0.09101123 -0.072641924 0.0055676904 -0.048167326 0.023793936 -0.11417343
-0.15521465 -0.088588886 0.10225289 -0.014199215 0.03222732 -0.039818738 -0.033293687 -0.01807281
-0.0071328194 -0.08799579 -0.1378946 -0.15531251 0.054552976 0.07010177 -0.17658515 -0.18591733
-0.03337497 0.048238195 -0.107684806 -0.10699505 -0.18897505 -0.011261184 -0.039396603 -0.066887
-0.11568361 -0.1713384 0.055055227 0.03447805 0.11761097 -0.08363052 -0.05261534 -0.014659034
0.09588419 0.08784984 0.019936953 0.018824825 -0.04422744 -0.022142937 0.13891113 0.05748585
-0.06275822 -0.033642292 0.041566003 0.13754131 -0.069530144 0.038668867 0.023848303 0.009592719
0.08075892 -0.05258814 -0.0749006 0.06984183 -0.08684992 0.09187376 -0.0677363 0.030553203
-0.032874152 0.050544895 -0.06595593 0.019262446 -0.046437252 0.012152187 0.007486489 -0.03424181
00000000: 841b 913d 5ee4 56bc 7198 ff3b 9368 1b3d
00000010: 4647 7bbc 3f5a 19bb 9164 f53d a519 233d
00000020: 23c2 6c3d ddbd 7fbd 31fa 793d ccd0 b53c
00000030: 10fd e73c 88f5 813c 621f 02bd 9e4e e13d
00000040: 459e a0bd 5dcc b9bc 2141 e5bc 7dca b0bd
00000050: b16f 59bc c194 cf3d a7d9 b23d d3eb 14be
00000060: fe59 4f3d 6a19 b63d 434c cbbd a084 2cbd
00000070: 01ab cfbd d6b0 17bd 24c8 1d3c 9456 cb3c
00000080: 6746 4e3c ca56 2abc 9c9a bd3c fe1b d8bd
00000090: 0738 acbd 7612 cc3d e2ff b2bc 051f a63d
000000a0: e4d6 afbd 41a0 e2bd 825e 4ebd f7f1 91bc
000000b0: 54b1 0d3e 2d72 ff3c 57f5 92bd e30a 27bd
000000c0: e9a0 ab3d 1815 8fbd 14b0 0bbd 3898 993d
000000d0: f380 e9bd b582 a3bd b367 91bd 31b9 893d
000000e0: 3a2d 8cba e731 08be 64c5 b5bc 2f77 98bd
000000f0: a6a4 f8bd 831f 84bd 7e85 523d 3d20 b1bd
00000100: e79d 8abc cd32 57bc 4108 13bd dc61 1a3d
00000110: 2ecd 743d e3f6 39bd b341 e23d ac87 843c
00000120: add5 a6bd 7bee 183d b1fe d83c 341e 083e
00000130: a356 5d3d fb75 cd3d f50f d83d ab21 773c
00000140: 1d00 a33d 66d0 41bc ee3c 00bb f05d 98bc
00000150: 6bc4 95bc 362f b73d 56b3 cfbc 989c 8a3d
00000160: d2d3 9c3d 87c3 afbc 0873 02bd 33cf fe3d
00000170: fbf9 5cbb 9b73 c3bd 8ed6 1b3c dada bb3d
00000180: b9ef 4c3d 4714 b4bd 14f8 a3bd 1931 e0bd
00000190: 2bf7 ba3c f417 34bd 676c 03bb 9834 d83d
000001a0: be1b f63d dc60 ebbc e417 113e 3ee5 98bb
000001b0: 8a26 95bd dca2 b33d d915 c83d a4f3 9f3c
000001c0: 10c4 913d c41b 733d ed9b df3d 8fda 043e
000001d0: 0c87 a6bb 398e 9e3d 79ca 923d ac07 c53b
000001e0: 4905 fb3d 13c3 24bd 017e 18bd 9769 d73c
000001f0: 3b8b c63d 48bb 6e3d f589 0e3e db42 4abd
00000200: 5a7b f03d 699e c23b 59df 0d3d 29f6 66bc
00000210: 36d1 133d 155d dfbc 9aa9 a8bb 2c33 653d
00000220: a4b6 cf3d b1b4 db3d a092 3cbd f711 61bc
00000230: c6e4 f33d 6c85 ab3d 794b d03d 1631 1e3e
00000240: 6958 1d3e a31c 1fbd 674e 023e 6553 13bd
00000250: c6c1 09bd 863b ee3d 79dc 983d b76c f93d
00000260: bb28 c13c a83b deba 516a 813d 7dcc 023e
00000270: 7d4e 64bd f7fc e43d 17f1 2abb d328 60bd
00000280: c619 8abd eafc f23d 651c 083d 36d0 9ebd
00000290: 1221 c53d 1f2b 1a3c 91a3 443c 4b16 f3bd
000002a0: 64d4 573d a664 733d bbc4 cfbd de34 88bd
000002b0: 3724 06be 7ab0 883c 9e3c 193d 9237 c53b
000002c0: 3a4b 8bbd 9bfd 64bd 5307 05be e2e3 bbbd
000002d0: 071f 203d 7e5b cabd 1bbe ce3c 43e1 2bbd
000002e0: a44b 933d 642f 0dbe 1964 babd 4ac5 94bd
000002f0: 2c71 b63b 1a4b 45bd 80eb c23c c2d3 e9bd
00000300: 97f0 1ebe 176e b5bd f769 d13d d3a3 68bc
00000310: cb00 043d f918 23bd f65e 08bd 6e0d 94bc
00000320: 6dba e9bb 2337 b4bd 3e34 0dbe 3e0a 1fbe
00000330: f172 5f3d 8491 8f3d bdd2 34be 1d61 3ebe
00000340: 31b4 08bd 6a95 453d da89 dcbd 3920 dbbd
00000350: ad82 41be d480 38bc 555e 21bd 0dfc 88bd
00000360: 87eb ecbd 5573 2fbe 9781 613d db38 0d3d
00000370: 05de f03d 7a46 abbd 2f83 57bd 722c 70bc
00000380: ee5e c43d 9eea b33d d252 a33c 8536 9a3c
00000390: d527 35bd 1b65 b5bc b83e 0e3e 4876 6b3d
000003a0: 6287 80bd 80cc 09bd 1d41 2a3d a1d7 0c3e
000003b0: d265 8ebd 3f63 1e3d 845d c33c c82a 1d3c
000003c0: ef64 a53d a966 57bd 7c65 99bd 3c09 8f3d
000003d0: 5fde b1bd 4f28 bc3d 54b9 8abd b64a fa3c
000003e0: 0ca7 06bd 2a08 4f3d e713 87bd 47cc 9d3c
000003f0: fd34 3ebd f719 473c 3951 f53b 2441 0cbd

block1.1.weight f4 [16]
0.30033934 0.30593723 0.2975833 0.30108497 0.30668548 0.29970816 0.29913303 0.2975404
0.30550957 0.2981316 0.29869992 0.3237525 0.29829934 0.30558315 0.298333 0.29855645
00000000: 14c6 993e cea3 9c3e d75c 983e cf27 9a3e
00000010: e105 9d3e 5973 993e f727 993e 3757 983e
00000020: c06b 9c3e b4a4 983e 32ef 983e e3c2 a53e
00000030: b1ba 983e 6575 9c3e 1abf 983e 64dc 983e

block1.1.bias f4 [16]
7.506153e-05 -8.7923385e-05 1.917353e-06 9.882853e-06 0.00010575662 -1.5023776e-05 -0.0001840917 -5.544658e-06
-4.1116444e-05 0.00018299355 -1.7120521e-05 -0.00034963782 4.900485e-07 7.291838e-05 -1.412016e-06 -3.228457e-06
00000000: 5a6a 9d38 8263 b8b8 e0ab 0036 88ce 2537
00000010: a7c9 dd38 a00e 7cb7 bd08 41b9 400c bab6
00000020: 7274 2cb8 f5e1 3f39 0a9e 8fb7 984f b7b9
00000030: e08b 0335 c2eb 9838 8084 bdb5 78a8 58b6

block1.1.running_mean f4 [16]
-0.9055222 2.4433296 0.8576472 -1.3417177 -1.771645 0.47411084 -0.18505636 -3.350691
-2.5639892 -0.54487777 0.10636651 2.0705996 1.1550584 0.9567585 -0.030693678 -0.038415596
00000000: 4ed0 67bf 835f 1c40 c48e 5b3f 68bd abbf
00000010: 43c5 e2bf a8be f23e 6a7f 3dbe b971 56c0
00000020: 6618 24c0 1c7d 0bbf afd6 d93d b484 0440
00000030: f4d8 933f 20ee 743f 4f71 fbbc ac59 1dbd

block1.1.running_var f4 [16]
1.0042604 5.7742367 1.5482044 2.234868 3.4167871 0.8658354 0.21496698 10.591763
6.2577147 0.73165023 0.116165906 4.019825 1.5170863 1.1563001 0.38055247 0.0661321
00000000: 9b8b 803f 8cc6 b840 902b c63f 1408 0f40
00000010: a4ac 5a40 64a7 5d3f 4e20 5c3e dc77 2941
00000020: 333f c840 6e4d 3b3f 64e8 ed3d 68a2 8040
00000030: e22f c23f a401 943f c6d7 c23e 4470 873d

block1.2.conv.weight f4 [32, 1, 24, 1]
-0.11105318 0.29050756 -0.21243829 0.1776908 0.10361825 -0.19186532 -0.054816738 -0.12920389
-0.042411342 0.14606611 -0.054187678 -0.07070201 -0.0578277 0.030633032 0.041069362 0.065238886
0.22911443 0.08144088 0.037963413 0.10819669 0.018285003 0.22794229 -0.13526689 -0.056332882
0.15770869 -0.05539921 -0.1042361 -0.17525505 -0.22968382 0.073086776 -0.21015783 0.12731919
-0.20925966 0.019956885 -0.12489831 0.11112612 0.03164723 -0.11917476 0.064780146 0.13126759
0.014312101 -0.10099384 -0.10821878 0.043618932 0.030666254 0.2644717 0.16631706 0.060569298
0.077406265 -0.040967807 -0.011296484 0.14510508 0.204129 -0.0014290197 -0.017523512 0.15880221
0.08263616 0.16828986 -0.22883636 0.09477154 0.03253674 -0.12392527 -0.10573646 -0.093900524
-0.09641673 -0.17437448 -0.1853145 0.1625209 0.027212406 0.06571552 -0.08306332 -0.11207093
0.1521304 -0.056359697 0.15099402 -0.019642087 0.16427661 0.052864198 0.10472108 0.081073135
-0.08977793 0.22800073 0.044816278 -0.11930035 -0.22270806 -0.012618811 -0.18083505 0.1570688
-0.044420306 -0.076082624 -0.015145159 -0.10173616 -0.16432379 0.19013089 0.005811295 0.13479726
0.037426487 -0.07378864 -0.023647174 -0.11873866 -0.15109928 0.17370428 -0.11508481 -0.057625256
0.11831057 0.09863832 -0.06317621 0.017399853 0.024469415 -0.10383148 -0.054915607 0.15193194
0.078208044 -0.15141568 0.13805613 -0.0999436 -0.05179534 -0.12502065 0.16721883 -0.21569419
-0.12355407 -0.18677324 0.19933869 0.14106847 0.017713096 0.13109963 -0.19993284 -0.17726867
0.024670595 -0.022490023 -0.029256376 0.1609642 -0.11745314 -0.15586007 -0.23691083 0.15666708
-0.079909526 -0.016339961 -0.07458959 0.059252337 -0.05636612 0.04732237 -0.054949045 -0.070941225
0.06548082 -0.023259526 0.01065042 -0.0004936731 -0.014753262 0.054610275 -0.017110612 -0.044772018
-0.05392017 -0.1890653 0.017171865 -0.1350418 -0.21756816 0.015913913 0.17609708 0.23612139
0.183847 -0.12805125 -0.1246495 0.04215895 -0.10616887 0.060426068 0.1345571 -0.19877753
0.08206456 0.23595804 0.062380884 -0.1553377 -0.024780724 0.22752479 -0.10669924 0.050203133
0.1454355 -0.03845706 -0.06769109 0.052733857 0.20662194 0.28045413 0.04138857 -0.010211078
0.021829035 -0.12623587 0.29709458 -0.08442392 -0.1337459 0.019367084 0.009990298 -0.022716133
-0.06864784 0.13387339 -0.09967561 -0.20315549 0.15226676 -0.168474 0.036933165 -0.019158844
0.12124692 0.061495222 -0.0067864484 -0.105791256 0.105995044 0.016783541 0.06887428 -0.24240175
-0.040882953 -0.15660833 0.07041918 0.029228054 -0.022309002 0.23411144 0.16874486 0.015345257
-0.062208388 -0.048613157 0.015689949 -0.16253401 0.15230018 -0.089988165 -0.11321113 0.1961195
0.16330352 -0.16359684 0.15868352 -0.16239351 -0.05602778 0.24275328 -0.0040447065 0.10721038
-0.08696353 0.16825908 0.03829793 0.17550063 0.1106675 -0.040385906 0.15573001 0.18795682
0.21713153 -0.19764733 -0.15293895 0.13139655 -0.037141785 -0.09957847 0.06007684 -0.1052971
0.13492684 -0.16227835 0.08029545 0.0838412 -0.0024767155 0.17534587 0.061822895 0.14886047
00000000: da6f e3bd 68bd 943e 6c89 59be 94f4 353e
00000010: ce35 d43d 5878 44be 8487 60bd 064e 04be
00000020: 84b7 2dbd 5b92 153e e6f3 5dbd 37cc 90bd
00000030: bddc 6cbd 20f2 fa3c 5938 283d f79b 853d
00000040: f99c 6a3e 7aca a63d 867f 1b3d 3a96 dd3d
00000050: 6eca 953c b469 693e 6783 0abe 4fbd 66bd
00000060: 637e 213e 48ea 62bd bd79 d5bd 0f76 33be
00000070: 3c32 6bbe 85ae 953d 9d33 57be f65f 023e
00000080: 2a48 56be 9f7c a33c afca ffbd 1796 e33d
00000090: 87a0 013d e611 f4bd 74ab 843d 036b 063e
000000a0: 4d7d 6a3c dcd5 cebd cfa1 ddbd c4a9 323d
000000b0: cc37 fb3c d668 873e 054f 2a3e 8317 783d
000000c0: 2d87 9e3d dccd 27bd e314 39bc 6d96 143e
000000d0: 3107 513e f24d bbba 788d 8fbc 0c9d 223e
000000e0: 263d a93d 2d54 2c3e 1454 6abe 9517 c23d
000000f0: 3f45 053d 88cc fdbd 5b8c d8bd eb4e c0bd
00000100: 2276 c5bd 398f 32be 16c3 3dbe e16b 263e
00000110: 8dec de3c dc95 863d 1a1d aabd 7285 e5bd
00000120: 12c8 1b3e 6dd9 66bd 2d9e 1a3e 71e8 a0bc
00000130: 2138 283e 2188 583d 0178 d63d ac09 a63d
00000140: 7edd b7bd 0679 693e 4691 373d be53 f4bd
00000150: 950d 64be 21bf 4ebc d32c 39be a5d6 203e
00000160: 11f2 35bd 35d1 9bbd 6723 78bc 0c5b d0bd
00000170: 7f44 28be acb1 423e ad6c be3b 4b08 0a3e
00000180: 844c 193d 801e 97bd b8b7 c1bc 412d f3bd
00000190: c5b9 1abe 89df 313e 96b1 ebbd 7608 6cbd
000001a0: d04c f23d e302 ca3d 8762 81bd 238a 8e3c
000001b0: 1574 c83c 99a5 d4bd 30ef 60bd 0c94 1b3e
000001c0: 8a2b a03d b60c 1bbe 965e 0d3e 3baf ccbd
000001d0: 5a27 54bd 6a05 00be 6a3b 2b3e f0de 5cbe
000001e0: eb09 fdbd 7c41 3fbe 711f 4c3e 4174 103e
000001f0: 0e1b 913c fb3e 063e 32bb 4cbe eb85 35be
00000200: fd19 ca3c ff3c b8bc 11ab efbc cdd3 243e
00000210: 468b f0bd c899 1fbe c198 72be 566d 203e
00000220: 9ba7 a3bd 62db 85bc 6dc2 98bd 94b2 723d
00000230: 29e0 66bd 1ad5 413d 4012 61bd a249 91bd
00000240: cf1a 863d c38a bebc 197f 2e3c d769 01ba
00000250: aab7 71bc 06af 5f3d 8e2b 8cbc dd62 37bd
00000260: 65db 5cbd 569a 41be 03ac 8c3c 6648 0abe
00000270: 30ca 5ebe e55d 823c cb52 343e cec9 713e
00000280: 6342 3c3e de1f 03be 3d48 ffbd ddae 2c3d
00000290: 116f d9bd 5381 773d 56c9 093e 568c 4bbe
000002a0: 7711 a83d fc9e 713e 1983 7f3d d910 1fbe
000002b0: f200 cbbc 42fc 683e 2285 dabd cda1 4d3d
000002c0: 0bed 143e 2685 1dbd a0a1 8abd 75ff 573d
000002d0: b494 533e af97 8f3e 1087 293d 5e4c 27bc
000002e0: ced2 b23c fa43 01be c81c 983e 73e6 acbd
000002f0: aff4 08be b8a7 9e3c 59ae 233c 2f17 babc
00000300: 3d97 8cbd 1b16 093e ba22 ccbd fe07 50be
00000310: d1eb 1b3e 7384 2cbe 3b47 173d 02f3 9cbc
00000320: 4e50 f83d 6ae2 7b3d db60 debb 16a9 d8bd
00000330: ee13 d93d a37d 893c f50d 8d3d 2a38 78be
00000340: e274 27bd ef5d 20be ee37 903d ac6f ef3c
00000350: 5ec1 b6bc e9ba 6f3e 74cb 2c3e ac6a 7b3c
00000360: 39ce 7ebd 971e 47bd 3588 803c 516f 26be
00000370: 94f4 1b3e b74b b8bd 3ddb e7bd 8dd3 483e
00000380: 0a39 273e ee85 27be ef7d 223e 7c4a 26be
00000390: 637d 65bd 5194 783e 7589 84bb 1e91 db3d
000003a0: ef19 b2bd 1c4c 2c3e 4ade 1c3d 70b6 333e
000003b0: a4a5 e23d b16b 25bd b077 1f3e c177 403e
000003c0: ba57 5e3e 1064 4abe 079c 1cbe d18c 063e
000003d0: fc21 18bd ccef cbbd 2213 763d 02a6 d7bd
000003e0: 432a 0a3e 4c2c 26be f171 a43d efb4 ab3d
000003f0: 6450 22bb de8d 333e 013a 7d3d e16e 183e

block1.3.weight f4 [32]
1.0721647 0.92052835 1.1338173 0.9376383 0.95909613 1.0630505 1.0173103 1.0631937
1.0536299 0.9016418 1.0573441 0.95070237 1.1863265 1.2566144 0.9349412 1.010774
1.0296147 0.9647364 0.9192674 1.0038562 0.96419847 0.90068126 1.0007875 0.9446566
0.9465553 1.0268308 1.0284154 0.9407234 1.2165201 0.9680737 1.0983623 1.0109953
00000000: b13c 893f bfa7 6b3f ed20 913f 1009 703f
00000010: 5387 753f 0a12 883f 3937 823f bb16 883f
00000020: 58dd 863f ffd1 663f 0d57 873f 3b61 733f
00000030: 8cd9 973f bed8 a03f 4e58 6f3f 0b61 813f
00000040: 6aca 833f f7f8 763f 1c55 6b3f 5c7e 803f
00000050: b6d5 763f 0c93 663f ce19 803f 04d5 713f
00000060: 7351 723f 316f 833f 1ea3 833f 40d3 703f
00000070: eeb6 9b3f aed3 773f 2397 8c3f 4b68 813f

block1.3.bias f4 [32]
-0.13658181 -0.09510766 -0.14876397 0.048880417 -0.026742289 -0.01524108 0.045267306 -0.08628414
-0.18373373 -0.10106029 -0.13488188 -0.078769855 -0.21949026 -0.2941461 0.015713561 -0.1471474
-0.08606325 -0.13322134 0.037587427 -0.10946333 -0.003221583 -0.08681842 -0.18814059 0.031369403
-0.042107318 -0.19030865 -0.17019221 -0.14823756 -0.3212006 -0.08103508 -0.124903806 -0.04618452
00000000: 1adc 0bbe cec7 c2bd 9555 18be d536 483d
00000010: a512 dbbc b9b5 79bc 366a 393d bdb5 b0bd
00000020: b224 3cbe b3f8 cebd 7a1e 0abe 1752 a1bd
00000030: 0ec2 60be 519a 96be bab9 803c cfad 16be
00000040: ee41 b0bd 2d6b 08be 46f5 193d 4f2e e0bd
00000050: 3221 53bb dbcd b1bd eda7 40be 347d 003d
00000060: b978 2cbd 45e0 42be de46 2ebe 96cb 17be
00000070: 6874 a4be b8f5 a5bd 91cd ffbd fb2b 3dbd

block1.3.running_mean f4 [32]
-0.041233428 -0.05886196 0.038003277 0.003444164 0.03511589 0.021824537 -0.0768903 0.17304094
-0.032192998 -0.07909712 -0.02148684 0.0057050707 0.07420599 -0.009712875 0.08390479 -0.11000675
-0.1220833 -0.114357986 0.041129548 -0.075878814 -0.014250355 0.002322073 0.029147202 -0.08359909
0.14232208 -0.1391832 -0.10400094 -0.13415019 -0.0034422441 0.00623261 -0.013241934 -0.023893641
00000000: 62e4 28bd 3d19 71bd 53a9 1b3d 7cb7 613b
00000010: aed5 0f3d 5fc9 b23c a978 9dbd a531 313e
00000020: cedc 03bd acfd a1bd 2b05 b0bc 9af1 ba3b
00000030: 4ff9 973d c022 1fbc 46d6 ab3d 384b e1bd
00000040: cf06 fabd 8534 eabd 7577 283d 5a66 9bbd
00000050: 527a 69bc ec2d 183b 1dc6 ee3c 0036 abbd
00000060: e1bc 113e 0a86 0ebe 72fe d4bd ab5e 09be
00000070: 4697 61bb ec3a cc3b b2f4 58bc 99bc c3bc

block1.3.running_var f4 [32]
0.018969545 0.004358507 0.01203702 0.0077915182 0.0051291734 0.022716172 0.0065185195 0.019877931
0.0064031957 0.0639518 0.026926786 0.10018206 0.04700402 0.08487599 0.017717702 0.006958176
0.0043922146 0.0039423387 0.024856156 0.019244717 0.022299148 0.020973386 0.003968142 0.0036137372
0.016369954 0.048448205 0.01168365 0.018063396 0.09476093 0.016829275 0.04255251 0.017106563
00000000: 0566 9b3c cfd1 8e3b ec36 453c fe4f ff3b
00000010: a012 a83b 4417 ba3c 4e99 d53b 0bd7 a23c
00000020: e6d1 d13b 29f9 823d 9095 dc3c 402c cd3d
00000030: 4a87 403d 77d3 ad3d b724 913c 6901 e43b
00000040: 91ec 8f3b bc2e 813b 239f cb3c 19a7 9d3c
00000050: b4ac b63c 61d0 ab3c 3007 823b 73d4 6c3b
00000060: 481a 863c a071 463d c86c 3f3c b0f9 933c
00000070: 0512 c23d 8cdd 893c 8a4b 2e3d 1023 8c3c

block2.0.depthwise.weight f4 [32, 1, 1, 16]
0.23655032 0.058436982 0.19112287 0.08997929 0.089661896 0.10437067 -0.07204191 -0.013649217
-0.19523464 0.11257586 0.13388008 0.13823035 -0.17806518 -0.00888492 -0.06259834 -0.2086748
0.09252688 0.045116596 -0.24310145 -0.107440285 0.14470509 0.115629315 0.1505719 -0.02396858
-0.029755516 -0.1638573 -0.08452573 0.011803754 0.040978875 -0.1845814 -0.20810933 -0.018404434
-0.11265521 -0.16502705 -0.05344304 0.04690346 -0.19140491 -0.2663226 0.025270468 0.03295186
-0.13132824 -0.09111709 0.17369188 -0.009256532 -0.23014724 -0.1060681 0.003790516 0.090521455
0.18529113 0.1307232 -0.13518268 0.07315892 0.17250308 -0.008863994 0.19132546 -0.21532203
0.08029616 0.06977824 -0.16201581 -0.15493625 -0.1377816 0.053216502 0.15543069 0.21395361
-0.081086956 0.13936424 0.22393492 -0.118232004 0.18536745 -0.18157914 -0.17782575 0.19521226
-0.058313094 0.25635245 -0.08964203 0.19047138 0.21697018 -0.008447954 0.038980946 -0.15718691
-0.10949438 -0.013988427 0.16289473 0.017569082 -0.10339019 0.18718524 -0.090548635 -0.16410595
-0.22932005 -0.16241251 0.079142205 0.19183828 0.006241712 0.3112346 0.28984222 0.26130566
-0.16004123 0.12535302 -0.22278929 0.0123074455 -0.14502962 -0.15903325 0.19569086 -0.05386054
0.15807554 -0.24643362 -0.005397807 -0.16237101 0.04529682 0.1265681 0.0535404 -0.011701165
-0.07049876 0.25532484 -0.061175425 0.101527944 -0.15455343 0.084216565 -0.010539033 0.11921031
0.2484622 0.25152883 -0.038020372 0.20571505 0.1281132 -0.102276325 0.20188722 0.09940155
-0.21750799 -0.18914565 -0.16291855 -0.24477005 -0.2805209 -0.013317248 0.08387985 -0.00012066646
-0.2309087 0.15883364 -0.19156127 -0.07236445 0.20371483 0.2114201 -0.20440799 0.10625891
-0.18299036 0.041365344 -0.12059196 0.117597595 -0.10836558 0.110968366 -0.02081618 0.16673307
-0.007374097 0.21849358 -0.05503162 0.17193218 0.21607378 -0.21196304 -0.046205323 -0.20028172
-0.08299732 -0.050176017 0.0039474387 0.08369546 -0.07381307 -0.06804121 -0.21392258 -0.038827747
-0.0004825931 0.037865035 -0.1915661 -0.27362686 -0.02633778 -0.13457084 -0.080846824 -0.033094145
0.20097567 0.13374841 0.13686068 0.103414595 0.0014334836 0.25896525 -0.0026563879 0.0145492675
-0.18735236 -0.10138916 0.016916774 0.0044208164 -0.12726933 -0.00388045 0.20044188 -0.13745403
-0.28892314 -0.23428394 -0.17719787 -0.03796335 -0.25625846 -0.21240054 -0.018644176 -0.03966487
-0.18502319 -0.29039335 0.007652349 -0.13573475 -0.06406423 0.14692403 0.008828265 0.01698029
0.14348395 0.06828651 0.20705706 0.04831392 0.22311598 0.21158236 0.29628855 0.34836087
0.054391965 0.2678516 0.18145008 0.14620978 -0.06979981 -0.04024253 -0.10959035 0.16401121
-0.14335535 0.1852079 -0.023046464 0.070370644 -0.231733 0.087367855 0.1085056 0.12202086
0.13663562 0.08043296 -0.26178616 -0.003377245 -0.11974992 -0.21383256 -0.25757512 -0.118955165
-0.11672051 -0.08452105 0.2717062 -0.16560142 -0.10031182 -0.02120236 -0.19683258 0.04154106
-0.08116689 0.007818301 -0.21968357 -0.18699668 0.2611742 -0.060412273 -0.18385877 0.24806094
00000000: 3f3a 723e 9e5b 6f3d b7b5 433e 1047 b83d
00000010: a8a0 b73d 4ac0 d53d b58a 93bd f7a0 5fbc
00000020: 97eb 47be 2c8e e63d dc17 093e 428c 0d3e
00000030: b856 36be 0e92 11bc 8f33 80bd d9ae 55be
00000040: bc7e bd3d 2ecc 383d 96ef 78be a709 dcbd
00000050: 922d 143e 10cf ec3d 852f 1a3e c159 c4bc
00000060: d7c1 f3bc 35ca 27be d31b adbd 8864 413c
00000070: 77d9 273d e802 3dbe 9d1a 55be e5c4 96bc
00000080: c6b7 e6bd dafc 28be 17e7 5abd d81d 403d
00000090: a6ff 43be 705b 88be 0304 cf3c 88f8 063d
000000a0: e97a 06be 999b babd 49dc 313e b6a8 17bc
000000b0: b8ab 6bbe 3b3a d9bd 4e6a 783b 5063 b93d
000000c0: f5bc 3d3e 4ddc 053e 546d 0abe 58d4 953d
000000d0: a6a4 303e 493a 11bc d2ea 433e 617d 5cbe
000000e0: 5072 a43d e5e7 8e3d 79e7 25be 9ca7 1ebe
000000f0: 9f16 0dbe 8cf9 593d 3929 1f3e a816 5b3e
00000100: eb10 a6bd 80b5 0e3e 324f 653e 9f23 f2bd
00000110: f7d0 3d3e e2ef 39be f417 36be b9e5 473e
00000120: b6d9 6ebd a140 833e 3e96 b7bd ee0a 433e
00000130: 6e2d 5e3e 4a69 0abc 7caa 1f3d 9bf5 20be
00000140: 973e e0bd b72f 65bc e0cd 263e 09ed 8f3c
00000150: 3cbe d3bd 7dad 3f3e 9071 b9bd 640b 28be
00000160: e0d2 6abe 774f 26be 4f15 a23d 4171 443e
00000170: 4687 cc3b 245a 9f3e 3366 943e dbc9 853e
00000180: d9e1 23be 8b5c 003e e022 64be 2ba5 493c
00000190: a582 14be 9dd9 22be 2f63 483e df9c 5cbd
000001a0: 8ede 213e 1859 7cbe 16e0 b0bb 9644 26be
000001b0: 2989 393d 119b 013e 2e4d 5b3d 3eb6 3fbc
000001c0: a761 90bd f0b9 823e 1593 7abd e2ed cf3d
000001d0: 4143 1ebe bc79 ac3d e9ab 2cbc 8924 f43d
000001e0: e06c 7e3e 63c8 803e 40bb 1bbd f7a6 523e
000001f0: 1b30 033e 4076 d1bd 86bb 4e3e 0a93 cb3d
00000200: 6aba 5ebe 66af 41be 1fd4 26be 00a5 7abe
00000210: 6fa0 8fbe 9630 5abc 33c9 ab3d 500e fdb8
00000220: 5573 6cbe 49a5 223e a328 44be d033 94bd
00000230: 9f9a 503e 837e 583e 5450 51be 459e d93d
00000240: d361 3bbe b56e 293d ebf8 f6bd 02d7 f03d
00000250: c6ee ddbd 6243 e33d b286 aabc 13bc 2a3e
00000260: 69a2 f1bb c8bc 5f3e d668 61bd fd0e 303e
00000270: 7242 5d3e d70c 59be cb41 3dbd a716 4dbe
00000280: 80fa a9bd 5e85 4dbd 8459 813b 8668 ab3d
00000290: 4f2b 97bd 3159 8bbd 850e 5bbe d809 1fbd
000002a0: 8d04 fdb9 5e18 1b3d e729 44be d218 8cbe
000002b0: 54c2 d7bc f0cc 09be 0593 a5bd ba8d 07bd
000002c0: 91cc 4d3e 58f5 083e 3525 0c3e 08cb d33d
000002d0: bae3 bb3a 1897 843e cb16 2ebb 0d60 6e3c
000002e0: 4cd9 3fbe 1fa5 cfbd 0c95 8a3c 7fdc 903b
000002f0: e452 02be 264f 7ebb a340 4d3e c0c0 0cbe
00000300: bced 93be 21e8 6fbe 5c73 35be 757f 1bbd
00000310: 4f34 83be 877f 59be acbb 98bc a177 22bd
00000320: b876 3dbe 70ae 94be 8ec0 fa3b 0dfe 0abe
00000330: 1b34 83bd 4173 163e 6da4 103c 401a 8b3c
00000340: 75ed 123e ccd9 8b3d c406 543e d1e4 453d
00000350: 8478 643e 0ca9 583e 22b3 973e 5b5c b23e
00000360: 1cca 5e3d d823 893e 0dce 393e 04b8 153e
00000370: 34f3 8ebd 5ad5 24bd e870 e0bd 8ef2 273e
00000380: bfcb 12be 24a7 3d3e f0cb bcbc 7c1e 903d
00000390: 6a4b 6dbe ebed b23d 2f38 de3d 13e6 f93d
000003a0: 35ea 0b3e 09ba a43d d608 86be c554 5dbb
000003b0: 723f f5bd ecf6 5abe e3e0 83be c49e f3bd
000003c0: 2a0b efbd 5f19 adbd 131d 8b3e 6b93 29be
000003d0: 4970 cdbd 92b0 adbc 7b8e 49be f526 2a3d
000003e0: d43a a6bd 5518 003c bbf4 60be 0f7c 3fbe
000003f0: a0b8 853e dc72 77bd 7945 3cbe b003 7e3e

block2.0.pointwise.weight f4 [32, 32, 1, 1]
-0.10185159 -0.0627026 0.118299365 -0.1785473 0.023663484 0.124255314 0.0145779895 -0.12647094
0.0034920643 -0.17116307 0.029290508 -0.1282046 0.11292725 0.13750245 0.06102062 -0.015107538
0.12861358 0.15223622 0.052603755 -0.12868783 0.030517524 0.08638562 0.05509075 -0.027804421
-0.09960725 0.07411979 0.108015046 0.0010014834 -0.05048093 -0.045607835 -0.18242265 0.07929424
-0.07727462 -0.046669766 0.027993856 -0.0797013 -0.06658421 -0.040695 0.14852735 0.13152288
0.024254885 -0.054143775 -0.046938106 0.07162101 -0.011794144 0.12928939 -0.055443812 0.14990103
-0.026720103 -0.09904579 0.0746186 0.054531436 0.13368754 0.09792612 -0.16584282 -0.010375949
0.18386675 -0.013326553 -0.1850672 -0.14220002 -0.16044135 -0.07462234 -0.031018917 0.12745075
0.17498294 0.031028006 0.16822374 -0.061795652 0.07481098 0.054673348 0.10801419 -0.0042827767
0.1093197 0.12071744 0.2626009 0.15027481 -0.052916408 -0.06193014 0.061477665 -0.02775217
-0.047991775 0.099642985 -0.02706278 0.0909148 0.13643138 0.0055431793 -0.06331435 -0.20260382
-0.046036042 0.046837475 0.09455336 -0.022102986 0.080917716 0.10055934 -0.07915145 -0.0954422
0.27495587 0.11530551 -0.033474028 -0.0773013 0.13313626 -0.0264082 0.0153165 -0.18563421
-0.059764568 -0.03392827 0.044731993 0.09817336 0.0053510345 -0.03276394 -0.15866093 -0.025513759
0.12802237 -0.092200324 0.051280662 -0.11036586 -0.1492409 -0.057771932 -0.027876941 0.141885
0.14048502 0.17881033 -0.048063945 -0.14419983 0.092500165 0.018516438 -0.12166697 -0.049027804
0.18667336 -0.07601258 0.17128998 -0.058784068 -0.18194716 0.14257227 -0.006851631 0.0818377
0.1194699 -0.044058517 0.105817474 0.08646284 0.0056287088 -0.16127764 -0.049892012 0.10097676
-0.052629165 0.13460045 0.13359962 -0.06986447 0.008204934 -0.02816478 0.015880182 -0.031262163
-0.09960018 0.04943536 0.0032414482 -0.09305229 0.0744762 -0.008786992 0.055942446 -0.0018399588
-0.08970644 -0.04787927 0.089841865 0.13033333 -0.11067551 -0.06438061 0.10037325 -0.108687095
-0.040790997 0.035789948 0.02605227 0.14317289 0.21753916 -0.16316652 0.086673684 -0.1515682
0.01325877 0.020171368 -0.12757605 -0.055880766 -0.01050156 -0.054832853 0.09803543 -0.11434464
0.06324928 -0.022766834 -0.05858499 0.11449221 0.24715173 -0.024577642 -0.00040783372 0.18761109
0.17949006 0.086513616 0.06598558 0.05296072 -0.15021367 0.18710086 0.13834089 -0.0760359
0.08965297 -0.054745965 0.005237116 0.0041926163 0.026386023 -0.08892404 0.044841044 0.035643205
0.0014402863 0.046128783 -0.16249394 0.1642233 0.08272823 0.14186767 0.009984227 0.1751576
0.06075617 0.06660879 -0.04091756 -0.093888454 -0.12392919 0.022686228 0.11283855 0.07638903
-0.07849248 -0.16991454 -0.07760145 0.08892382 -0.0710371 -0.21278918 0.02772914 0.14913106
-0.08214139 -0.0067933956 -0.057225242 0.06480286 -0.07869083 0.1367418 0.0093723135 -0.08400805
-0.08958341 0.10551255 -0.054435663 -0.040562313 0.124965385 -0.11507281 -0.06362767 0.02670399
-0.14110498 0.1479324 -0.12473476 -0.01750859 0.106314756 0.12842284 -0.1826424 -0.10645463
00000000: 9197 d0bd 396a 80bd f046 f23d 1ad5 36be
00000010: ecd9 c13c 9279 fe3d 85d8 6e3c 9981 01be
00000020: 1edb 643b 5f45 2fbe a6f2 ef3c 1148 03be
00000030: 6746 e73d 71cd 0c3e c2f0 793d 9b85 77bc
00000040: 47b3 033e d0e3 1b3e 0977 573d bec6 03be
00000050: e3ff f93c f2ea b03d d7a6 613d 19c6 e3bc
00000060: e3fe cbbd 1ecc 973d fe36 dd3d 3544 833a
00000070: 17c5 4ebd 48cf 3abd 01cd 3abe 0565 a23d
00000080: 2842 9ebd cc28 3fbd 5f53 e53c 6f3a a3bd
00000090: 4d5d 88bd cdaf 26bd 8e17 183e efad 063e
000000a0: 2eb2 c63c ddc5 5dbd 2c42 40bd 09ae 923d
000000b0: 3a3c 41bc 7064 043e 0d19 63bd a87f 193e
000000c0: 1ee4 dabc 85d8 cabd a3d1 983d 5b5c 5f3d
000000d0: 63e5 083e 7d8d c83d b3d2 29be e2ff 29bc
000000e0: 9147 3c3e 9d57 5abc 4282 3dbe e29c 11be
000000f0: bd4a 24be 99d3 98bd 621b febc 7382 023e
00000100: ba2e 333e 722e fe3c d842 2c3e 701d 7dbd
00000110: 8036 993d 29f1 5f3d 8b36 dd3d 8956 8cbb
00000120: 02e3 df3d b53a f73d a073 863e a4e1 193e
00000130: e0be 58bd 75aa 7dbd 01d0 7b3d 8558 e3bc
00000140: 0693 44bd 9f11 cc3d c3b2 ddbc 8a31 ba3d
00000150: abb4 0b3e 8fa3 b53b f4aa 81bd 6077 4fbe
00000160: 4a90 3cbd a7d8 3f3d 31a5 c13d 5211 b5bc
00000170: 30b8 a53d 0ef2 cd3d 281a a2bd 3377 c3bd
00000180: 04c7 8c3e 4c25 ec3d 101c 09bd 2550 9ebd
00000190: df54 083e 0256 d8bc 0ff2 7a3c e516 3ebe
000001a0: b1cb 74bd 5ff8 0abd e538 373d 1d0f c93d
000001b0: bb57 af3b 7b33 06bd 0378 22be 3b02 d1bc
000001c0: 4c18 033e 86d3 bcbd ac0b 523d 7f07 e2bd
000001d0: 9bd2 18be 43a2 6cbd 2f5e e4bc 4d4a 113e
000001e0: 4edb 0f3e 0e1a 373e b3de 44bd 1fa9 13be
000001f0: ba70 bd3d c9af 973c 882c f9bd 61d1 48bd
00000200: 4d27 3f3e 7cac 9bbd a466 2f3e 90c7 70bd
00000210: 5b50 3abe 77fe 113e a683 e0bb 869a a73d
00000220: a3ac f43d b476 34bd d5b6 d83d 6e13 b13d
00000230: 0871 b83b f725 25be 915b 4cbd e7cc ce3d
00000240: ae91 57bd b3d4 093e 57ce 083e 1a15 8fbd
00000250: fd6d 063c d3b9 e6bc 2817 823c c10c 00bd
00000260: 2efb cbbd bb7c 4a3d 7a6e 543b 3392 bebd
00000270: fa86 983d 51f7 0fbc e823 653d c62a f1ba
00000280: 03b8 b7bd 0e1d 44bd 03ff b73d 1a76 053e
00000290: d7a9 e2bd fbd9 83bd 7e90 cd3d 5797 debd
000002a0: 7614 27bd 7b98 123d 926b d53c ea9b 123e
000002b0: 96c2 5e3e 2015 27be f981 b13d b234 1bbe
000002c0: 503b 593c 6d3e a53c 4ca3 02be 3be3 64bd
000002d0: bc0e 2cbc 6a98 60bd cdc6 c83d 862d eabd
000002e0: d788 813d 8381 babc d1f6 6fbd e47a ea3d
000002f0: 5815 7d3e 0d57 c9bc 84d2 d5b9 1f1d 403e
00000300: 3ecc 373e 0d2e b13d 7323 873d 57ed 583d
00000310: 9dd1 19be 5e97 3f3e 3ca9 0d3e b6b8 9bbd
00000320: fa9b b73d 4e3d 60bd 1d9c ab3b 3762 893b
00000330: 8027 d83c cf1d b6bd 3eab 373d 9cfe 113d
00000340: fdc7 bc3a 89f1 3c3d d064 26be 272a 283e
00000350: 6b6d a93d c245 113e e294 233c 845c 333e
00000360: 76db 783d 306a 883d 2c99 27bd 9748 c0bd
00000370: 96ce fdbd 78d8 b93c e617 e73d da71 9c3d
00000380: aac0 a0bd 14fe 2dbe 82ed 9ebd b11d b63d
00000390: e67b 91bd 68e5 59be 3928 e33c d0b5 183e
000003a0: bf39 a8bd 229b debb 0465 6abd 5db7 843d
000003b0: a828 a1bd 0b06 0c3e 558e 193c 6a0c acbd
000003c0: 8277 b7bd f716 d83d eef7 5ebd ab24 26bd
000003d0: daed ff3d 4bab ebbd 394f 82bd 53c2 da3c
000003e0: d37d 10be 977b 173e f074 ffbd 2d6e 8fbc
000003f0: 8dbb d93d 4781 033e 9c06 3bbe e304 dabd

block2.1.weight f4 [32]
0.9587376 0.95069414 0.9585411 1.0023521 0.96254116 0.974751 0.97085124 0.97281206
1.010216 0.9620485 0.9728904 0.9437521 0.9321105 0.9956729 0.9507067 0.94835895
0.98767036 1.0103655 0.9594104 0.9607808 0.9611382 0.947544 1.0167965 0.95339954
0.96384007 0.97757274 0.99665374 1.0051734 0.93148386 0.965322 1.0073968 0.9718527
00000000: d46f 753f b160 733f f362 753f 134d 803f
00000010: 1969 763f 4889 793f b589 783f 360a 793f
00000020: c24e 813f cf48 763f 580f 793f bd99 713f
00000030: cb9e 6e3f 6be4 7e3f 8461 733f a7c7 723f
00000040: f7d7 7c3f a853 813f ec9b 753f bbf5 753f
00000050: 270d 763f 3e92 723f 6326 823f fe11 743f
00000060: 39be 763f 3542 7a3f b324 7f3f 86a9 803f
00000070: ba75 6e3f 581f 773f 61f2 803f 57cb 783f

block2.1.bias f4 [32]
-0.02278351 -0.064046994 -0.05625454 -0.05825079 -0.055128735 0.00080705027 -0.0770506 -0.009203939
-0.023521254 -0.026559172 -0.020590803 -0.013555355 0.032111138 -0.015285274 -0.06370787 -0.0455128
-0.07664632 -0.01920646 -0.018752629 -0.005708161 -0.036135707 -0.029703496 -0.02766728 -0.006965369
-0.019897606 -0.04381217 -0.06323051 -0.06662264 -0.011909316 -0.0066401204 -0.058722183 -0.07006053
00000000: 7ca4 babc 122b 83bd 296b 66bd 6198 6ebd
00000010: abce 61bd 3a90 533a b4cc 9dbd 1ecc 16bc
00000020: a5af c0bc 9f92 d9bc 0bae a8bc 4817 5ebc
00000030: f886 033d 166f 7abc 4679 82bd a16b 3abd
00000040: bff8 9cbd de56 9dbc 1d9f 99bc 860b bbbb
00000050: 0903 14bd bf54 f3bc 7ea6 e2bc c03d e4bb
00000060: 4e00 a3bc 6474 33bd ff7e 81bd 7371 88bd
00000070: 4b1f 43bc 5e95 d9bb ac86 70bd e57b 8fbd

block2.1.running_mean f4 [32]
-0.058845397 0.0110764755 -0.06893307 0.007503755 -0.07625501 -0.073455915 -0.033660475 0.07081141
-0.027259909 0.008244447 -0.046226036 -0.02023818 -0.031643618 0.051712748 -0.08219033 -0.09155091
-0.03370645 0.022289662 0.0067326967 0.04284174 -0.043070547 -0.09762105 0.03998245 -0.0047334507
0.076844454 -0.052266404 0.08778156 0.028997354 -0.059937168 -0.05219148 0.035649 0.020474806
00000000: df07 71bd 1b7a 353c c82c 8dbd 0fe2 f53b
00000010: 962b 9cbd 0e70 96bd 91df 09bd 9305 913d
00000020: 2c50 dfbc b813 073c 8357 3dbd 8aca a5bc
00000030: bd9c 01bd bfd0 533d 6753 a8bd 0b7f bbbd
00000040: c60f 0abd cf98 b63c f49d dc3b d27a 2f3d
00000050: be6a 30bd 8ced c7bd a3c4 233d 101b 9bbb
00000060: a060 9d3d 4c15 56bd d2c6 b33d dc8b ed3c
00000070: ad80 75bd bcc6 55bd b004 123d c8ba a73c

block2.1.running_var f4 [32]
0.13228178 0.11286702 0.12568794 0.15944773 0.09302975 0.11250694 0.0994865 0.12150979
0.107862 0.13002796 0.16907592 0.12408184 0.12963198 0.09933329 0.119870976 0.13637109
0.16857705 0.11736693 0.17518231 0.16087572 0.20969334 0.20180005 0.1287821 0.12402125
0.111412995 0.13776866 0.16274235 0.16178933 0.13181242 0.11958852 0.10967323 0.099068455
00000000: e074 073e d326 e73d 57b4 003e 4446 233e
00000010: 6286 be3d 0a6a e63d 94bf cb3d 20da f83d
00000020: c1e6 dc3d 0d26 053e 3d22 2d3e 9f1e fe3d
00000030: 3fbe 043e 406f cb3d ea7e f53d dda4 0b3e
00000040: 769f 2c3e 135e f03d fe62 333e 9bbc 243e
00000050: dab9 563e aca4 4e3e 74df 033e dafe fd3d
00000060: 7f2c e43d 3a13 0d3e eea5 263e 1aac 253e
00000070: d6f9 063e d3ea f43d 5c9c e03d 67e4 ca3d

classifier.weight f4 [3, 256]
0.088430025 -0.035437338 0.0124884145 0.03737212 0.013523795 -0.0067694667 0.060668185 -0.068638735
-0.022947324 0.043384004 0.041748974 0.029629778 0.0938282 -0.022103656 0.027677275 -0.048935547
-0.01873725 0.019243045 -0.06065609 0.042771 -0.020533776 -0.06394529 0.011702624 0.045958124
-0.040938344 0.066148676 0.06237623 0.0035422842 0.021379061 0.04832648 -0.015014778 0.022292914
0.05057393 0.01879121 -0.045300514 0.055811204 -0.03182207 -0.03673744 0.03731885 -0.017312776
-0.05170932 -0.07382586 -0.075425334 -0.06537912 -0.023496015 0.0016053413 0.0011375562 -0.023761818
-0.020472549 0.016367018 -0.08007466 0.031464346 0.0035310567 -0.025895407 0.074362725 -0.04000807
-0.043388374 -0.054064244 0.06636959 -0.014128975 0.0073338263 0.062001023 -0.034036297 0.0140819345
-0.037306957 -0.061743468 -0.0018394984 -0.011705029 0.020775503 0.008885008 -0.03928204 0.104324296
-0.02710801 0.041204274 -0.02221173 -0.042987254 -0.04144265 -0.07551225 0.010470198 -0.010980868
0.02552341 0.018724298 0.010743123 0.008439039 -0.00017349957 0.027019162 0.0049172523 0.028381452
0.03210324 -0.045426533 -0.04350235 -0.041303877 -0.008783952 -0.011434126 -0.046332087 -0.01728658
-0.006286457 -0.019081779 -0.0465555 -0.04057766 -0.034503292 -0.049608134 0.0072508627 0.009162802
-0.061898574 -0.041515846 0.009786992 -0.0028042423 -0.021188335 -0.07575753 -0.0044920654 0.018355574
0.023967355 -0.015502562 -0.10162833 -0.03708071 -0.037648182 -0.13125741 0.06057497 -0.0429964
-0.024798244 -0.030660972 -0.0096307285 0.01003993 0.00022464672 0.0031452114 0.052484438 0.00020383838
-0.020192185 0.014340354 0.037642978 0.044680256 0.040873837 0.03916514 0.036028262 0.06622522
-0.043142993 0.063482255 -0.014991225 -0.04722063 0.027973695 0.08834204 -0.028716607 -0.037589937
-0.060241632 0.0024140894 0.012393205 0.0054408265 0.042323392 0.043997366 0.033043247 -0.0065642423
-0.04787531 0.0059580044 -0.0075651794 0.023689914 -0.06336567 -0.033167973 0.08984971 -0.04485974
-0.005107698 0.024069373 0.026243765 0.020915966 0.08614014 0.060688257 0.034213193 -0.015676567
0.04948594 0.02329373 -0.029878702 0.013479907 0.016693141 0.03078875 0.028097015 -0.030987814
-0.021301895 -0.01056908 -0.010224157 -0.0018511801 0.00010191972 -0.0066533224 0.017435519 -0.0129014235
-0.035212956 -0.052469753 -0.0461618 -0.057159074 -0.032413196 0.010303284 -0.07858172 0.07166246
0.026194671 -0.019167013 -0.010784239 0.020694291 -0.008362374 0.013233998 0.024345681 0.01173509
-0.0010523782 0.019421536 0.011290871 -0.058261745 0.018454364 0.019006237 -0.03380964 -0.016119037
-0.055259403 0.015089124 0.03102077 0.065503135 0.017579194 0.056111645 0.048098505 0.034702383
-0.061482944 0.0018478192 0.04232519 0.06312684 0.018156385 0.031764552 -0.03447412 0.0022474194
-0.010825932 -0.038825538 -0.08978904 -0.05639322 -0.000340447 0.046696916 0.0026004792 -0.018783288
0.026042536 -0.038771506 -0.024058184 -0.019604577 -0.016324574 -0.0077924104 0.02959369 0.021453235
-0.0029493931 -0.007444249 0.05216203 0.018333292 0.06136196 0.0063644974 0.009850746 0.021333078
-0.0023274855 0.034650173 0.075393915 0.02227907 0.062298544 0.075822085 0.07113509 0.040212538
00000000: cd1a b53d be26 11bd 359c 4c3c 8213 193d
00000010: e892 5d3c 67d2 ddbb 347f 783d 7792 8cbd
00000020: 07fc bbbc 6db3 313d f900 2b3d 26ba f23c
00000030: 0029 c03d ba12 b5bc 74bb e23c a470 48bd
00000040: dc7e 99bc 97a3 9d3c 8572 78bd a530 2f3d
00000050: 7336 a8bc c0f5 82bd 5dbc 3f3c 963e 3c3d
00000060: f7ae 27bd f578 873d 387e 7f3d ab25 683b
00000070: 2423 af3c fdf1 453d 8b00 76bc a19f b63c
00000080: 9c26 4f3d 06f0 993c 088d 39bd 4a9a 643d
00000090: dc57 02bd ff79 16bd a7db 183d 86d3 8dbc
000000a0: 27cd 53bd 0332 97bd 9978 9abd 7de5 85bd
000000b0: b77a c0bc 516a d23a 0d1a 953a 25a8 c2bc
000000c0: 0cb6 a7bc 2014 863c 2ffe a3bd c2e0 003d
000000d0: 4d69 673b 9b22 d4bc 7c4b 983d 81df 23bd
000000e0: 02b8 31bd 7872 5dbd c8ec 873d 377d 67bc
000000f0: 9850 f03b c9f4 7d3d a569 0bbd eab7 663c
00000100: 2ecf 18bd b8e6 7cbd 531b f1ba 73c6 3fbc
00000110: 6331 aa3c 6d92 113c 34e6 20bd faa7 d53d
00000120: 9e11 debc d0c5 283d 60f5 b5bc 6713 30bd
00000130: c5bf 29bd 2ba6 9abd 318b 2b3c 19e9 33bc
00000140: 7816 d13c b363 993c ec03 303c e543 0a3c
00000150: 70ed 35b9 4a57 dd3c e720 a13b 3880 e83c
00000160: b07e 033d 2c11 3abd 852f 32bd 412e 29bd
00000170: 91ea 0fbc 3356 3bbc b7c6 3dbd 969c 8dbc
00000180: a0fe cdbb 6451 9cbc fbb0 3ebd c334 26bd
00000190: 5353 0dbd e631 4bbd a598 ed3b 941f 163c
000001a0: 5c89 7dbd 850c 2abd 9f59 203c 61c7 37bb
000001b0: 2993 adbc c426 9bbd 2d32 93bb 6e5e 963c
000001c0: 3057 c43c 75fe 7dbc 8422 d0bd f1e1 17bd
000001d0: fb34 1abd 5868 06be 761d 783d fe1c 30bd
000001e0: b025 cbbc b82c fbbc 34ca 1dbc 857e 243c
000001f0: 258f 6b39 e41f 4e3b ecf9 563d 73bd 5539
00000200: 156a a5bc cef3 6a3c 862f 1a3d a502 373d
00000210: 536b 273d a06b 203d 5f92 133d 17a1 873d
00000220: b5b6 30bd fc02 823d c19d 75bc 6b6a 41bd
00000230: 1729 e53c acec b43d 173f ebbc e8f7 19bd
00000240: eebf 76bd b335 1e3b df0c 4b3c f648 b23b
00000250: 4b5b 2d3d 9536 343d 5b58 073d db18 d7bb
00000260: e718 44bd 5d3b c33b 53e5 f7bb 5a11 c23c
00000270: dcc5 81bd 24db 07bd 2003 b83d d9be 37bd
00000280: 7a5e a7bb 222d c53c 2afd d63c f657 ab3c
00000290: 3e6a b03d 4094 783d 2223 0c3d 256c 80bc
000002a0: c5b1 4a3d 7ed2 be3c 2ec4 f4bc d4da 5c3c
000002b0: 0ec0 883c b038 fc3c b62b e63c 28da fdbc
000002c0: 5081 aebc ef29 2dbc 3983 27bc 4ca3 f2ba
000002d0: bcbd d538 1d04 dabb efd4 8e3c 7e60 53bc
000002e0: 763b 10bd 86ea 56bd 2814 3dbd a21f 6abd
000002f0: b3c3 04bd 1bcf 283c 74ef a0bd c5c3 923d
00000300: 3596 d63c 2404 9dbc 60b0 30bc 1387 a93c
00000310: 5702 09bc 69d3 583c 9870 c73c 8944 403c
00000320: f4ef 89ba ea19 9f3c 58fd 383c dea3 6ebd
00000330: 9b2d 973c f8b2 9b3c fa7b 0abd 120c 84bc
00000340: af57 62bd 6038 773c 451f fe3c 8226 863d
00000350: 3e02 903c 53d5 653d f002 453d 1624 0e3d
00000360: 8ad5 7bbd 8632 f23a 2e5d 2d3d a548 813d
00000370: b3bc 943c 8c1b 023d bc34 0dbd 7149 133b
00000380: 405f 31bc 8707 1fbd 51e3 b7bd 94fc 66bd
00000390: 067e b2b9 4445 3f3d cd6c 2a3b 69df 99bc
000003a0: 2857 d53c dfce 1ebd ab15 c5bc c799 a0bc
000003b0: 1dbb 85bc 7a57 ffbb 776e f23c b2be af3c
000003c0: 9b4a 41bb e3ee f3bb daa7 553d b32f 963c
000003d0: ae56 7b3d 468d d03b 0665 213c b5c2 ae3c
000003e0: ba88 18bb 57ed 0d3d 2068 9a3d 9982 b63c
000003f0: c22c 7f3d 9c48 9b3d 46af 913d e7b5 243d

classifier.bias f4 [3]
-0.010182393 -0.0063018366 0.023032673
00000000: 0dd4 26bc a37f cebb 04af bc3c
