backend/models/eegnet_gesture.pt (torch, 13089 bytes, 18 tensors)

block1.0.weight f4 [8, 1, 1, 32]
-0.0485935 -0.06918109 0.0028083392 -0.090617694 0.031011108 0.1125457 -0.008833435 0.10081861
-0.05523172 0.013421871 0.040637005 -0.033441704 0.1418195 0.035664823 0.082924075 0.014329792
0.003217533 0.121246606 0.023385223 0.08795216 0.025787774 -0.034067716 0.059377793 0.1121242
0.02882542 0.12593108 0.06031127 0.14512333 0.11032633 0.037106242 0.15443867 0.24478889
-0.0121307755 -0.043103524 0.046160888 0.043326765 0.079794995 0.013238359 0.017768169 -0.17146109
-0.11321096 -0.09771411 -0.040703326 0.049186092 0.17114559 0.16880096 0.23767026 0.16973262
-0.008493167 -0.1510238 -0.04235711 -0.2111453 -0.132964 -0.07873459 -0.13894407 -0.023339158
-0.109966606 0.0034435426 0.09096908 0.035997722 0.034538098 0.07510425 -0.03221151 -0.010744558
-0.086762734 0.12932993 0.0774366 -0.12289399 -0.06456004 0.14200313 -0.008504796 -0.048224963
-0.2610163 -0.0938597 0.23243614 -0.036130905 0.015583666 0.128604 0.102489665 -0.012137916
-0.11079583 0.038999654 0.019135408 0.06718429 -0.07268242 -0.05948735 -0.04337548 -0.050355654
-0.07547846 0.05799016 -0.02807782 0.12505654 0.065880015 0.06467514 0.09763137 -0.22753836
0.18727194 0.18551101 0.03756259 0.18292522 -0.030321598 -0.043491386 0.06063482 0.09611927
-0.011710585 0.015062079 -0.11785946 0.04713401 -0.14695854 -0.004515004 -0.19418879 -0.16744983
0.07758491 -0.15860817 -0.029262643 0.083169654 0.09026337 -0.023751423 -0.15368682 0.01546618
0.041863665 -0.05133584 -0.062556714 0.20919926 0.17465936 0.19378568 0.15432298 0.11869362
0.12952973 -0.15078427 -0.1954697 -0.19449303 0.066887155 0.07298282 0.036508974 0.01959623
0.047592163 0.10284733 0.01974965 0.13339484 0.056238748 0.008839101 0.20900792 0.09653299
-0.05894605 -0.18395844 -0.20112081 -0.11338412 0.003426262 -0.018806553 0.059433226 -0.07982057
0.013265154 0.11465956 -0.026120065 -0.031158604 -0.13712941 0.029080767 -0.044882458 0.124730095
-0.12116685 -0.08929235 -0.034593016 0.18590179 0.031189764 0.037101053 -0.18265992 -0.13228078
0.14006813 -0.12089959 -0.023770275 -0.08350008 0.09083301 0.1754101 0.060128897 0.03152878
-0.05710288 0.083721295 0.15387097 -0.10698999 -0.1549457 -0.16753826 -0.048831366 0.13000175
0.0029803035 0.066631705 -0.12095744 0.06638952 0.06995157 0.11730175 -0.12425895 -0.14966746
-0.08953837 0.20386785 -0.06292374 -0.14927012 0.1666945 0.019361345 -0.15742916 0.061825864
0.13670874 -0.11830946 -0.029559141 -0.02635075 0.035651326 0.037949234 -0.07120183 0.18690747
-0.1583006 -0.03685377 0.097189486 -0.04167878 0.08242093 -0.046200354 0.062240887 -0.20122704
0.13385962 -0.11879199 0.14046234 -0.03932531 0.037168648 0.013343845 -0.12744957 0.05336385
0.14132556 0.21629673 0.2744319 0.20923837 0.17328684 0.08584862 0.019722208 0.15467368
0.12048366 0.12069322 -0.060933486 -0.063151665 -0.1276884 -0.030953888 -0.17068002 -0.05820435
-0.035978235 0.069267906 -0.09850715 -0.112730056 0.0150846355 -0.16947652 -0.05399247 -0.05917046
0.066700004 -0.0867765 -0.045752853 -0.1338381 0.08841184 -0.0759388 -0.026113175 -0.04960968
00000000: fa09 47bd d1ae 8dbd 1d0c 383b c595 b9bd
00000010: 020b fe3c 5c7e e63d 1dba 10bc fd79 ce3d
00000020: a83a 62bd 68e7 5b3c fd72 263d 2bfa 08bd
00000030: 2239 113e 4715 123d 19d4 a93d 81c7 6a3c
00000040: 3fdd 523b 2450 f83d 5e92 bf3c 4320 b43d
00000050: e240 d33c 978a 0bbd 2136 733d 5fa1 e53d
00000060: 4a23 ec3c 14f4 003e f308 773d 369b 143e
00000070: c5f2 e13d b7fc 173d 2c25 1e3e f0a9 7a3e
00000080: 29c0 46bc 528d 30bd 3313 3d3d 6877 313d
00000090: 8f6b a33d b4e5 583c 8d8e 913c 7f93 2fbe
000000a0: 26db e7bd 561e c8bd 88b8 26bd 5b77 493d
000000b0: ca40 2f3e 29da 2c3e d55f 733e 63ce 2d3e
000000c0: ed26 0bbc fca5 1abe a67e 2dbd 7936 58be
000000d0: b727 08be 9a3f a1bd 5b47 0ebe c331 bfbc
000000e0: 2c36 e1bd 0fad 613b ff4d ba3d 5972 133d
000000f0: d277 0d3d 42d0 993d 37f0 03bd f109 30bc
00000100: a9b0 b1bd 116f 043e 1597 9e3d d8af fbbd
00000110: 0e38 84bd 4569 113e b357 0bbc 8a87 45bd
00000120: eea3 85be 8439 c0bd bd03 6e3e 00fe 13bd
00000130: a252 7f3c c4b0 033e 1ae6 d13d 1cde 46bc
00000140: ede8 e2bd 1abe 1f3d dcc1 9c3c eb97 893d
00000150: 85da 94bd 02a9 73bd 7daa 31bd bb41 4ebd
00000160: 7394 9abd 1787 6d3d 7503 e6bc d20e 003e
00000170: 1aec 863d 6674 843d f5f2 c73d d1ff 68be
00000180: 37c4 3f3e 99f6 3d3e 3bdb 193d c050 3b3e
00000190: 0065 f8bc 0624 32bd 385c 783d 2eda c43d
000001a0: c1dd 3fbc f0c6 763c 4d60 f1bd 970f 413d
000001b0: 4d7c 16be 99f2 93bb 6dd9 46be f877 2bbe
000001c0: d6e4 9e3d 2e6a 22be 36b8 efbc da54 aa3d
000001d0: 00dc b83d 5892 c2bc 1460 1dbe dc65 7d3c
000001e0: 3c79 2b3d 8845 52bd bc1d 80bd 5538 563e
000001f0: e7d9 323e c16f 463e d806 1e3e a415 f33d
00000200: 71a3 043e 3167 1abe 3629 48be 2e29 47be
00000210: 22fc 883d 0478 953d 6f8a 153d 4688 a03c
00000220: 00f0 423d 9fa1 d23d 05ca a13c a898 083e
00000230: 9a5a 663d e0d1 103c 2c06 563e 17b3 c53d
00000240: 6a71 71bd 9a5f 3cbe 9df2 4dbe ef35 e8bd
00000250: 238b 603b 3310 9abc 4170 733d f878 a3bd
00000260: 1756 593c a2d2 ea3d bff9 d5bc 5440 ffbc
00000270: a76b 0cbe ca3a ee3c abd6 37bd 7e72 ff3d
00000280: 5326 f8bd e8de b6bd 68b1 0dbd 0a5d 3e3e
00000290: ad81 ff3c 46f7 173d 340b 3bbe 9d74 07be
000002a0: 056e 0f3e 349a f7bd e1b9 c2bc 1702 abbd
000002b0: a806 ba3d b59e 333e b849 763d 5224 013d
000002c0: b6e4 69bd 1276 ab3d 5a90 1d3e 911d dbbd
000002d0: 16aa 1ebe 268f 2bbe 6603 48bd 2e1f 053e
000002e0: 3251 433b 3476 883d 89b8 f7bd 3bf7 873d
000002f0: c542 8f3d e63b f03d 7a7b febd 6d42 19be
00000300: e55f b7bd bcc2 503e 29de 80bd 44da 18be
00000310: f7b1 2a3e af9b 9e3c 1c35 21be 1e3d 7d3d
00000320: 60fd 0b3e 3b4c f2bd 0326 f2bc 87dd d7bc
00000330: 2007 123d a870 1b3d 44d2 91bd ac64 3f3e
00000340: 8d19 22be fbf3 16bd 480b c73d 5eb7 2abd
00000350: 4ecc a83d 953c 3dbd 4df0 7e3d 760e 4ebe
00000360: 7f12 093e 3749 f3bd 5cd5 0f3e 9413 21bd
00000370: 273e 183d 24a0 5a3c 2482 02be 0d94 5a3d
00000380: a6b7 103e e47c 5d3e 5782 8c3e 9542 563e
00000390: 1b72 313e 67d1 af3d 7890 a13c c762 1e3e
000003a0: 23c0 f63d 022e f73d 6495 79bd a955 81bd
000003b0: bfc0 02be 0293 fdbc bec6 2ebe af67 6ebd
000003c0: ea5d 13bd 55dc 8d3d 1ebe c9bd 04df e6bd
000003d0: 8c25 773c 418b 2dbe 3527 5dbd b95c 72bd
000003e0: 039a 883d e1b7 b1bd 5867 3bbd db0c 09be
000003f0: 4411 b53d cd85 9bbd 4ceb d5bc 8533 4bbd

block1.1.weight f4 [8]
0.11644758 0.15261152 0.19360836 0.14410917 0.14890428 0.107043505 0.1336847 0.11968633
00000000: 127c ee3d 3246 1c3e 4541 463e 5b91 133e
00000010: 5d7a 183e a039 db3d a4e4 083e 1b1e f53d

block1.1.bias f4 [8]
4.880362e-05 -7.8831454e-07 -2.282639e-05 -7.7400575e-05 3.8338116e-05 -7.127784e-05 -2.9194332e-05 -7.1374643e-07
00000000: 7db2 4c38 909c 53b5 4d7b bfb7 1e52 a2b8
00000010: 3dcd 2038 007b 95b8 5ae6 f4b7 4898 3fb5

block1.1.running_mean f4 [8]
0.0031844797 -9.1396185e-05 -6.886812e-05 0.0033951057 -0.00022515316 -0.00080942723 -6.903845e-05 0.00019590277
00000000: b4b2 503b f4ab bfb8 4a6d 90b8 6c80 5e3b
00000010: 1717 6cb9 be2f 54ba bcc8 90b8 406b 4d39

block1.1.running_var f4 [8]
0.87079453 0.26145673 0.17896824 0.44494867 0.38510132 0.49839061 0.11086975 0.82055527
00000000: 64ec 5e3f a8dd 853e 7343 373e 50d0 e33e
00000010: 002c c53e 0e2d ff3e ae0f e33d e90f 523f

block1.2.conv.weight f4 [16, 1, 4, 1]
-0.028562529 0.14177324 0.31401983 -0.013712952 -0.1516903 -0.30081105 -0.40657583 -0.12220204
-0.064553946 -0.036083803 0.40529945 0.057516437 -0.14065737 -0.14765917 0.5303436 -0.079660624
-0.43959802 0.3979564 0.3047589 -0.25773078 0.27891594 -0.03683079 0.084478505 -0.23068883
-0.2188193 -0.23333356 0.19158679 0.050271496 -0.033924703 0.37276238 0.25738916 0.5334821
-0.230065 -0.41484988 0.35353866 0.14075564 -0.20123667 -0.3886386 -0.07481104 0.032814566
-0.16369258 0.63335913 0.060431972 -0.1894207 -0.17024277 -0.25688535 0.031819195 0.61863685
-0.3986395 0.27662554 -0.36374128 0.4044381 0.38543993 -0.27409032 -0.30840406 0.23445569
0.29417646 -0.32195643 -0.15702055 0.2516099 0.26981568 0.40964413 -0.2513961 -0.038573384
00000000: f7fb e9bc 012d 113e 35c7 a03e 4aac 60bc
00000010: b454 1bbe e803 9abe b52a d0be 1045 fabd
00000020: dc34 84bd 9ccc 13bd 6983 cf3e 5b96 6b3d
00000030: 7c08 10be f733 17be 99c4 073f 1c25 a3bd
00000040: fe12 e1be f1c0 cb3e 5c09 9c3e 4af5 83be
00000050: 12ce 8e3e e2db 16bd 1103 ad3d b139 6cbe
00000060: 2b12 60be feee 6ebe 542f 443e 7ce9 4d3d
00000070: a1f4 0abd b6da be3e 83c8 833e 4892 083f
00000080: 2996 6bbe 3467 d4be 0503 b53e 3f22 103e
00000090: fc10 4ebe a3fb c6be 8836 99bd 9168 063d
000000a0: 079f 27be d323 223f 8487 773d 80f7 41be
000000b0: 1f54 2ebe 7a86 83be d854 023d fc5e 1e3f
000000c0: 7a1a ccbe dda1 8d3e 4c3c babe 8312 cf3e
000000d0: 6258 c53e 9155 8cbe 23e7 9dbe 2715 703e
000000e0: 4c9e 963e 79d7 a4be ffc9 20be 03d3 803e
000000f0: 4825 8a3e e0bc d13e fdb6 80be 20ff 1dbd

block1.3.weight f4 [16]
0.9096342 1.1901287 1.1244065 1.2133682 1.210441 1.178795 1.1655555 1.1560432
1.0612065 1.1158243 1.0749438 1.1339401 1.1673965 1.3016751 0.93926704 1.1461122
00000000: c9dd 683f 2356 983f 8dec 8f3f a64f 9b3f
00000010: bbef 9a3f c1e2 963f ec30 953f 39f9 933f
00000020: 9dd5 873f 55d3 8e3f c297 893f f324 913f
00000030: 406d 953f 4a9d a63f ce73 703f ceb3 923f

block1.3.bias f4 [16]
-0.20368333 -0.21367684 -0.34870568 -0.42656618 -0.31560564 -0.31148902 -0.3157 -0.25979966
-0.38041097 -0.32012874 -0.31568524 -0.24840732 -0.32762426 -0.30329278 -0.08918582 -0.36441588
00000000: 5d92 50be 1ace 5abe 8d89 b2be e266 dabe
00000010: 1097 a1be 7d7b 9fbe 6ea3 a1be 7604 85be
00000020: 3ac5 c2be eae7 a3be 7fa1 a1be 7d5e 7ebe
00000030: 5ebe a7be 3149 9bbe 0ea7 b6bd b894 babe

block1.3.running_mean f4 [16]
-6.5823406e-05 1.4521847e-05 7.6572345e-05 0.000108332344 0.000106284264 3.8182752e-05 -0.00023454745 6.45576e-05
-1.3411709e-06 -3.5694444e-05 6.70692e-05 -0.00010377483 4.158632e-06 2.9888566e-05 0.00057890057 -1.1480966e-05
00000000: ac0a 8ab8 dca2 7337 7795 a038 7c30 e338
00000010: eee4 de38 6b26 2038 daf0 75b9 1963 8738
00000020: 4802 b4b5 9eb6 15b8 81a7 8c38 b0a1 d9b8
00000030: 608a 8b36 35b9 fa37 5cc1 173a 609e 40b7

block1.3.running_var f4 [16]
0.0023850056 0.0066017 0.004182065 0.008627972 0.029322833 0.0025834965 0.0025360575 0.009233385
0.0058943997 0.0030393293 0.0038444912 0.005500801 0.007767817 0.00986911 0.0053859437 0.0035563607
00000000: c14d 1c3b 1353 d83b b409 893b 565c 0d3c
00000010: 7036 f03c e14f 293b fc33 263b a047 173c
00000020: cf25 c13b 7c2f 473b dcf3 7b3b 1040 b43b
00000030: 2c89 fe3b 0cb2 213c 927c b03b d511 693b

block2.0.depthwise.weight f4 [16, 1, 1, 16]
-0.031083701 0.052612077 0.14206105 0.0029563562 -0.111045755 0.085759625 0.035818778 0.030555496
0.057465512 -0.00677371 0.2290972 0.04957975 0.15019491 0.16065666 0.18312727 0.12220427
-0.11337728 0.19132073 0.16251369 -0.09276562 0.16562529 0.15352413 -0.04411195 -0.040029395
0.06476959 0.22025517 0.24771163 0.05938572 0.05134829 0.13557854 0.16299903 0.19909725
0.14428572 0.03622565 0.123881176 -0.1099836 0.16103257 0.09339031 0.1667411 0.0061169043
0.20745738 0.25516853 -0.12583998 -0.064367235 0.120812096 0.26823282 -0.08519534 -0.062967755
-0.036995515 0.16044202 -0.09130136 0.014017972 0.23696586 0.247082 -0.002502366 -0.03367307
0.07035786 0.32177177 0.20581888 0.12088085 0.063211426 0.10482935 0.080608964 -0.0023392034
-0.3223434 -0.2739402 -0.26108766 -0.070820585 -0.0993744 -0.21039104 -0.11179385 -0.180012
-0.039822645 -0.09908132 -0.01937399 -0.079246856 0.061284766 0.05743277 0.115842216 0.07179853
0.030326605 -0.15686916 -0.07473729 -0.08623781 -0.22136636 -0.23060614 -0.048255686 -0.23896414
-0.035937116 0.08631154 -0.0965543 -0.21998902 -0.018950118 -0.117780775 -0.16734698 0.10273481
0.08655104 0.08607059 -0.1203405 -0.14626808 0.02570441 0.04254058 0.14887589 0.14081214
0.28728563 -0.12778774 0.29211733 -0.21583587 -0.21192478 0.013055992 -0.024028042 -0.045545526
0.0007591285 -0.074881926 -0.07958686 -0.038999654 0.09599952 -0.19345906 -0.21323662 -0.14179115
-0.15545653 -0.24635984 -0.11134964 0.012642281 -0.17077136 0.20665376 -0.16354524 -0.15481724
-0.09831502 0.049747583 -0.2362107 -0.19763319 0.089664124 0.022540426 0.010156057 -0.16644247
0.111441776 -0.31642893 -0.1310438 -0.12658708 0.0012391522 -0.16076626 -0.20366006 0.10202004
-0.04570924 -0.048140943 0.101365246 -0.27954072 0.07085223 0.009560555 -0.17102526 -0.16338648
0.13849528 -0.26201737 -0.22287875 0.0946405 -0.1723731 -0.15377729 0.110927604 0.0003476837
0.0177721 -0.24078715 -0.1903451 -0.33301976 -0.15353803 -0.2543583 0.08225166 -0.035619825
-0.16743481 0.027941227 -0.12088368 -0.23132935 0.040510807 -0.028997436 -0.13461536 -0.054415364
0.14828369 0.22691347 0.19034344 -0.009670666 0.20508777 0.21784347 -0.049158227 0.11908191
-0.07545935 0.17908011 0.044488717 0.00026624798 0.19185476 0.2089378 0.1848 0.13866624
-0.18321846 -0.08687253 0.10674344 -0.23426445 -0.05660259 -0.19098128 -0.14540409 -0.05149473
-0.08061442 -0.045344226 -0.07678198 -0.22276421 -0.28386298 -0.010476388 -0.2515337 -0.12038756
0.40449446 0.37012902 0.2861554 0.2665995 0.15924089 0.1595513 0.08243304 0.15169914
0.05112107 0.08909614 0.10471856 -0.110716075 -0.11288333 0.13807912 0.09704705 0.1550957
-0.23425193 -0.040074054 -0.24446854 -0.24734461 0.083760075 -0.22348858 -0.18184283 0.14408404
-0.17135121 0.039226945 0.03038083 0.16954646 -0.09930697 0.015757978 0.09601761 0.12103571
0.06719527 0.011086501 0.13303001 -0.0045254864 0.053634323 0.07618572 0.20403016 -0.035026275
0.14417318 0.25957963 0.08957572 -0.14755674 -0.05327473 0.15391418 0.009038352 0.13166153
00000000: 3fa3 febc c37f 573d 7478 113e 6dbf 413b
00000010: f56b e3bd bea2 af3d b6b6 123d 854f fa3c
00000020: f560 6b3d fff5 ddbb 7598 6a3e 2314 4b3d
00000030: b2cc 193e 2e83 243e b785 3b3e 3b46 fa3d
00000040: 5932 e8bd 95e9 433e fd69 263e e7fb bdbd
00000050: ad99 293e 6e35 1d3e bbae 34bd ddf5 23bd
00000060: eba5 843d 928a 613e 1ea8 7d3e 713e 733d
00000070: 9652 523d 1ad5 0a3e 38e9 263e 26e0 4b3e
00000080: a3bf 133e 5961 143d 6ab5 fd3d 153f e1bd
00000090: b9e5 243e 6b43 bf3d 2ebe 2a3e 5070 c83b
000000a0: b56f 543e 73a5 823e 32dc 00be f8d2 83bd
000000b0: 556c f73d d055 893e e57a aebd 3df5 80bd
000000c0: 9c88 17bd ea4a 243e 35fc babd a3ab 653c
000000d0: 2ea7 723e 1003 7d3e bcfe 23bb c6ec 09bd
000000e0: c817 903d 45bf a43e 2fc2 523e 6190 f73d
000000f0: fe74 813d c5b0 d63d 5016 a53d 524d 19bb
00000100: 320a a5be e441 8cbe 48ad 85be 620a 91bd
00000110: ce84 cbbd c070 57be 2df4 e4bd 1155 38be
00000120: 121d 23bd 26eb cabd 34b6 9ebc 2d4c a2bd
00000130: bc05 7b3d a03e 6b3d af3e ed3d 1c0b 933d
00000140: 806f f83c 4fa2 20be dd0f 99bd 739d b0bd
00000150: ddad 62be 0424 6cbe c1a7 45bd 04b3 74be
00000160: cc32 13bd 1bc4 b03d 43be c5bd cd44 61be
00000170: 473d 9bbc 0c37 f1bd 025d 2bbe a166 d23d
00000180: ac41 b13d c745 b03d 1475 f6bd 4dc7 15be
00000190: 0e92 d23c 083f 2e3d ec72 183e 0f31 103e
000001a0: 1a17 933e cada 02be 6790 953e 1404 5dbe
000001b0: cf02 59be cde8 553c 75d6 c4bc f28d 3abd
000001c0: 4000 473a b25b 99bd 70fe a2bd 1abe 1fbd
000001d0: 659b c43d 221a 46be b35a 5abe b331 11be
000001e0: ff2f 1fbe c145 7cbe 480b e4bd 9221 4f3c
000001f0: b0de 2ebe 0b9d 533e 6778 27be 6988 1ebe
00000200: 6359 c9bd 1fc4 4b3d 38e1 71be 5b60 4abe
00000210: d3a1 b73d b3a6 b83c 9765 263c e56f 2abe
00000220: 963b e43d f902 a2be 5930 06be 0ba0 01be
00000230: 0c6b a23a e99f 24be 438c 50be e2ef d03d
00000240: 9d39 3bbd 702f 45bd 9598 cf3d f61f 8fbe
00000250: f91a 913d e0a3 1c3c 3f21 2fbe c94e 27be
00000260: b5d1 0d3e 2427 86be 543a 64be e1d2 c13d
00000270: 9382 30be cb77 1dbe 032e e33d 5149 b639
00000280: cc96 913c e890 76be d3e9 42be 9181 aabe
00000290: 1339 1dbe 403b 82be 8f73 a83d 18e6 11bd
000002a0: 0874 2bbe 00e5 e43c dd91 f7bd 9ae1 6cbe
000002b0: a9ee 253d 088c edbc 9cd8 09be a5e2 5ebd
000002c0: aed7 173e 015c 683e 64e9 423e b771 1ebc
000002d0: 8702 523e 5c12 5f3e 235a 49bd 37e1 f33d
000002e0: 6f8a 9abd c760 373e cd39 363d 3397 8b39
000002f0: 9375 443e caf3 553e 363c 3d3e 86fe 0d3e
00000300: 9f9d 3bbe 3aea b1bd 4e9c da3d 05e3 6fbe
00000310: 1ed8 67bd 9990 43be cfe4 14be 23ec 52bd
00000320: 2c19 a5bd deba 39bd df3f 9dbd 4d1c 64be
00000330: 7d56 91be 28a5 2bbc 06c9 80be c18d f6bd
00000340: e619 cf3e 8d81 bd3e f682 923e bb7f 883e
00000350: 0b10 233e 6a61 233e a7d2 a83d 0557 1b3e
00000360: 5464 513d 0978 b63d af76 d63d 1cbf e2bd
00000370: 602f e7bd 9d64 0d3e 9bc0 c63d 68d1 1e3e
00000380: bddf 6fbe b124 24bd f655 7abe e847 7dbe
00000390: 678a ab3d 31da 64be 0235 3abe c48a 133e
000003a0: b176 2fbe 6fac 203d 38e1 f83c 969d 2d3e
000003b0: 7461 cbbd e016 813c e1a4 c43d 92e1 f73d
000003c0: ac9d 893d 28a4 353c 0539 083e 884a 94bb
000003d0: aaaf 5b3d 4207 9c3d 48ed 503e b677 0fbd
000003e0: 22a2 133e 9fe7 843e 7a73 b73d 1d19 17be
000003f0: 9a36 5abd ae9b 1d3e 9915 143c 48d2 063e

block2.0.pointwise.weight f4 [16, 16, 1, 1]
-0.09410525 0.26869428 0.002735564 0.011067374 -0.023245174 0.05234463 0.0016776519 -0.14648707
-0.049209524 0.015689418 0.121615194 -0.25769037 0.02708309 -0.049075484 0.21228465 -0.094694
-0.025664916 0.11088063 0.23387541 0.11312003 0.16123971 -0.25097454 -0.050698515 -0.013342846
-0.2794158 0.043421324 0.012001759 0.1309381 -0.2074193 -0.18651238 0.07314566 0.11542646
-0.1181222 -0.055562984 0.21596617 0.20083098 -0.21798718 -0.20799826 0.31633702 -0.11216959
-0.15155943 -0.2845253 -0.17873238 0.026619293 -0.12326664 0.050997954 -0.08560922 0.07291929
0.106195495 0.0033544423 0.15037465 0.14093947 0.003982515 0.0038051847 -0.17684023 -0.2565176
0.071032375 -0.20921516 0.026919184 0.14303954 0.1950795 -0.28627816 0.038835064 0.29731935
-0.010035844 -0.19131851 0.066952474 0.061045915 0.12014598 -0.0039050076 0.29140395 -0.11018491
-0.06076138 -0.22255129 0.13880928 0.13618188 0.096579626 -0.16729744 0.070973925 0.16646099
-0.00995145 0.03129336 0.31387895 0.138364 -0.009655541 -0.18531811 0.16091746 -0.0561928
-0.11683704 -0.1262005 -0.018876163 -0.012802464 -0.11435856 -0.07370684 0.03862963 0.120060034
-0.04280201 0.42890903 0.082636744 0.0477452 0.12015852 -0.007738881 0.23413943 0.020238586
0.0035168189 -0.075804934 0.20079668 0.04841115 0.13234882 -0.10458233 0.06271045 -0.17908323
-0.17374101 -0.008660229 0.19071221 0.01447769 0.27144304 0.21038513 -0.0020625263 0.19982046
0.108022064 0.0633071 0.21798263 -0.18240248 0.24013194 -0.21855499 0.13393414 0.15010026
-0.13856865 -0.046715297 0.073647544 0.09223109 0.0101388525 -0.22995313 0.31277177 0.012315946
-0.17838342 -0.23014887 -0.21270427 0.22158207 -0.18448341 0.010154912 -0.03500903 0.021525225
0.18910131 0.037280347 -0.05671473 -0.08499556 -0.21644402 -0.030470889 0.00083606044 -0.04285068
-0.09926417 0.11684644 -0.11280319 -0.041891765 -0.24041702 0.32239586 -0.19861054 0.089524455
0.011467106 0.18256906 -0.005318574 0.047327407 0.18401483 0.026234712 0.22406287 0.020687558
-0.14824203 -0.1830068 0.0118954815 -0.055750083 0.032874424 -0.29910854 0.24613453 0.10988617
0.19357654 0.04438877 0.04766236 0.05698248 0.112410516 -0.1041048 -0.00777223 -0.2875615
-0.03240308 0.0059706047 0.12531114 0.029772704 0.28030553 -0.26755115 0.15282902 0.020121668
-0.17222106 -0.20248562 0.16053419 0.10296078 -0.13909434 -0.21625349 0.33220592 0.04537604
-0.16980389 -0.118370205 -0.19848084 0.21469085 -0.018696355 0.0017423157 0.00622983 0.034054067
-0.084149286 -0.061542325 -0.057301685 0.06183389 -0.29170907 0.034280613 0.014826833 0.06591282
-0.050274976 -0.0037497105 -0.1685871 0.005397043 -0.21791041 0.27169734 -0.050803795 -0.022529483
0.07456712 0.15587832 0.05027809 0.076828375 -0.2932443 -0.13765953 0.038830876 -0.104191825
-0.049932484 0.016248997 -0.11715699 -0.019532228 -0.1067216 0.2048924 -0.02560129 -0.010846262
0.08972139 0.109880604 -0.12704985 0.1867222 -0.04349592 -0.18509355 0.008473739 -0.12955363
-0.09025886 -0.0331001 -0.12540366 -0.039440602 -0.06827587 0.30816042 -0.24776192 -0.06634122
00000000: 41ba c0bd 4c92 893e 2647 333b ee53 353c
00000010: aa6c bebc 5367 563d a8e4 db3a b500 16be
00000020: ed8f 49bd 1887 803c 6311 f93d feef 83be
00000030: 5bdd dd3c 6003 49bd 2661 593e eeee c1bd
00000040: 3b3f d2bc 6215 e33d 097d 6f3e 79ab e73d
00000050: 061c 253e bc7f 80be 3fa9 4fbd f49b 5abc
00000060: 960f 8fbe 8fda 313d 07a3 443c a314 063e
00000070: ba65 54be 1afd 3ebe 64cd 953d b564 ec3d
00000080: 0dea f1bd 0396 63bd 3c26 5d3e a3a6 4d3e
00000090: 0838 5fbe 7ffd 54be edf6 a13e 2cb9 e5bd
000000a0: 6532 1bbe 4dad 91be 9f05 37be b410 da3c
000000b0: 3873 fcbd 3be3 503d e353 afbd b556 953d
000000c0: 067d d93d 34d6 5b3b d0fb 193e 7052 103e
000000d0: c27f 823b 6860 793b 9b15 35be 4656 83be
000000e0: 6c79 913d 803c 56be 9f85 dc3c f578 123e
000000f0: ecc2 473e 0d93 92be 8411 1f3d 3e3a 983e
00000100: 616d 24bc 00e9 43be 611e 893d 480b 7a3d
00000110: 180f f63d 28eb 7fbb e632 953e a0a8 e1bd
00000120: ede0 78bd 7ce4 63be 0524 0e3e 4373 0b3e
00000130: 8acb c53d 0550 2bbe c75a 913d c074 2a3e
00000140: 680b 23bc 772d 003d beb4 a03e 4baf 0d3e
00000150: 4632 1ebc 08c4 3dbe 8cc7 243e 6c2a 66bd
00000160: 4248 efbd b43a 01be 2fa2 9abc 6dc1 51bc
00000170: d234 eabd 9df3 96bd 1a3a 1e3d 09e2 f53d
00000180: 2951 2fbd f799 db3e 743d a93d 7990 433d
00000190: ac15 f63d 7096 fdbb 3fc2 6f3e 64cb a53c
000001a0: 6e7a 663b 9e3f 9bbd a59d 4d3e c54a 463d
000001b0: 7386 073e 432f d6bd 566e 803d 9861 37be
000001c0: 2ae9 31be a2e3 0dbc 104a 433e d533 6d3c
000001d0: 95fa 8a3e 336f 573e 732b 07bb bc9d 4c3e
000001e0: ac3a dd3d 27a7 813d d736 5f3e b7c7 3abe
000001f0: 26e5 753e e1cc 5fbe 0826 093e e2b3 193e
00000200: f1e4 0dbe 8a58 3fbd 86d4 963d a7e3 bc3d
00000210: 6e1d 263c d578 6bbe 9f23 a03e d2c8 493c
00000220: 25aa 36be 25ac 6bbe 26cf 59be 69e6 623e
00000230: 38e9 3cbe ca60 263c a165 0fbd ab55 b03c
00000240: c6a3 413e 47b3 183d b44d 68bd 2712 aebd
00000250: 80a3 5dbe 169e f9bc 112b 5b3a 3284 2fbd
00000260: 034b cbbd 304d ef3d 5c05 e7bd b396 2bbd
00000270: e12f 76be 1211 a53e 9060 4bbe 9958 b73d
00000280: 87e0 3b3c 62f3 3a3e 6f47 aebb 62da 413d
00000290: 626e 3c3e 2eea d63c bd70 653e f478 a93c
000002a0: c2cc 17be 2266 3bbe 44e5 423c 335a 64bd
000002b0: 55a7 063d c124 99be b10a 7c3e 000c e13d
000002c0: ee38 463e 00d1 353d 9b39 433d 7666 693d
000002d0: 7c37 e63d e634 d5bd 31ae febb 433b 93be
000002e0: 18b9 04bd 10a5 c33b 9051 003e e3e5 f33c
000002f0: 3584 8f3e 77fc 88be 367f 1c3e 32d6 a43c
00000300: b85a 30be 6458 4fbe 1363 243e 1add d23d
00000310: bf6e 0ebe 8e71 5dbe e516 aa3e 3adc 393d
00000320: 12e1 2dbe 146c f2bd 903e 4bbe ebd7 5b3e
00000330: 1929 99bc 6a5e e43a 9a23 cc3b 477c 0b3d
00000340: 7656 acbd ce13 7cbd 2cb5 6abd 8845 7d3d
00000350: e45a 95be d469 0c3d 3fec 723c 4dfd 863d
00000360: 22ed 4dbd b4bd 75bb 19a2 2cbe aed9 b03b
00000370: e823 5fbe ea1b 8b3e a417 50bd c08f b8bc
00000380: a5b6 983d 919e 1f3e 66f0 4d3d 3258 9d3d
00000390: 1e24 96be 9ff6 0cbe 200d 1f3d 8662 d5bd
000003a0: 0186 4cbd 9e1c 853c 01f0 efbd 0d02 a0bc
000003b0: db90 dabd 50cf 513e ccb9 d1bc 85b4 31bc
000003c0: d9bf b73d 1509 e13d 5b19 02be 1b34 3f3e
000003d0: c728 32bd 2a89 3dbe 70d5 0a3c b5a9 04be
000003e0: a3d9 b8bd f893 07bd d169 00be 788c 21bd
000003f0: 38d4 8bbd 34c7 9d3e 4db5 7dbe e8dd 87bd

block2.1.weight f4 [16]
1.2840385 1.1969483 1.3148701 1.373922 1.3437397 1.3703864 1.2468199 1.2187766
1.3845528 1.2244455 1.2129897 1.3776417 1.3939869 1.1743159 1.1990845 1.17695
00000000: 605b a43f 9a35 993f aa4d a83f addc af3f
00000010: aaff ab3f d268 af3f cb97 9f3f df00 9c3f
00000020: 0739 b13f a1ba 9c3f 3f43 9b3f 9056 b03f
00000030: 2a6e b23f fc4f 963f 9a7b 993f 4ca6 963f

block2.1.bias f4 [16]
0.020532161 0.120550245 0.17491317 0.17292781 0.09593132 0.090101145 0.12901834 -0.12632227
0.10749019 -0.12218267 0.10151852 0.14236842 0.15945375 -0.21760292 -0.045978636 0.0035930604
00000000: 1033 a83c 0ce3 f63d 701c 333e fd13 313e
00000010: a477 c43d f386 b83d 621d 043e a05a 01be
00000020: d123 dc3d e83a fabd f1e8 cf3d 07c9 113e
00000030: d847 233e 4dd3 5ebe 1854 3cbd 8d79 6b3b

block2.1.running_mean f4 [16]
0.028496658 -0.09571993 -0.170443 -0.0051613324 -0.0046649626 -0.11046214 0.07166988 0.11134067
-0.1291145 -0.0944256 0.0022230374 0.051833972 -0.12267458 -0.107916854 -0.104950905 -0.093323454
00000000: d371 e93c d008 c4bd 9c88 2ebe 6520 a9bb
00000010: 8bdc 98bb f939 e2bd a8c7 923d 9406 e43d
00000020: 9736 04be 3562 c1bd 61b0 113b dc4f 543d
00000030: cf3c fbbd 8303 ddbd 80f0 d6bd 5e20 bfbd

block2.1.running_var f4 [16]
0.11231474 0.11357905 0.28087792 0.19127603 0.12859425 0.10175586 0.24339367 0.3189944
0.18341842 0.22030634 0.17489287 0.2035715 0.19242804 0.20037197 0.16868669 0.18533969
00000000: 4505 e63d 229c e83d 3bcf 8f3e dddd 433e
00000010: 36ae 033e 6065 d03d 313c 793e 3c53 a33e
00000020: 0ad2 3b3e fc97 613e 1e17 333e 0c75 503e
00000030: db0b 453e 4f2e 4d3e 34bc 2c3e b0c9 3d3e

classifier.weight f4 [3, 128]
0.04213781 -0.028239634 0.04069446 -0.12150364 0.031222774 0.031670757 0.082210645 0.021849852
0.16126497 0.1444284 0.10851419 0.0034765184 -0.040689938 0.09556753 0.049142748 0.18225628
0.4071389 0.27855122 -0.0009306962 -0.050308093 -0.03947685 0.12898874 0.032028966 0.07167405
0.103720054 0.11733541 0.06841541 0.111612216 0.05660197 0.06311654 0.28302372 0.31273428
0.1977468 0.10279574 0.044380814 0.06101318 0.16547585 0.15485741 0.18257862 0.23967303
0.32390165 0.24567474 0.08773842 -0.045755915 -0.0033093456 0.070033886 0.073903985 0.097119235
0.06873843 -0.0353119 0.008603579 -0.101034805 0.11261754 0.018391145 0.014570889 0.027999388
-0.16340701 -0.06522787 0.10156072 0.052917942 0.030632975 -0.09743244 -0.07419743 -0.04704737
0.3400211 0.23200598 0.092805915 0.008459736 0.103828356 0.13090703 0.024655322 0.08606009
0.15463084 0.0123926485 -0.19028643 -0.012432591 -0.15083703 -0.18346299 -0.03847593 0.044276875
0.08768511 0.001506335 0.076641925 0.04732349 0.10786874 0.057151098 0.09363007 0.069539204
0.03025736 -0.046456534 0.08729654 0.09104538 0.14747082 0.099255815 0.230616 0.17353953
0.14848387 0.3278452 0.19310066 -0.020582022 0.05617542 0.21236531 0.11648222 0.055098597
0.034228202 0.1540048 -0.07404954 -0.15378506 -0.0927671 -0.07533855 -0.18151781 -0.051750597
0.2579305 0.09982312 -0.02140748 -0.21511456 -0.16553904 -0.013669418 -0.0330551 -0.037418127
0.17974575 0.07029328 -0.13312103 -0.14008299 -0.07058512 -0.025633642 -0.049104363 0.101323724
-0.002055471 0.14969446 0.07254949 0.15500225 0.15336256 0.108192645 0.05264729 0.22695948
-0.049246293 -0.108396396 -0.22884679 -0.04496077 0.014229327 0.06618144 -0.06278753 -0.053712606
-0.23600045 -0.08877624 -0.012198081 0.03509093 -0.122337736 -0.18159065 -0.16792588 -0.29521817
-0.17272417 0.00980455 0.0007587835 0.07633578 0.08145198 0.035712462 -0.3169929 -0.20713256
-0.18355098 -0.06919252 -0.12416997 0.0031948125 0.083304755 0.009417896 -0.39909783 -0.39015365
-0.18997434 -0.04131476 -0.08715267 0.031822674 0.06970567 0.017182676 -0.21276852 -0.21971169
0.010573032 -0.022728458 -0.015752487 0.11146619 0.18966857 0.0184414 0.07887456 0.14586519
0.091409184 0.0700826 0.00078122737 0.10106907 0.1484263 0.19033927 0.13329117 0.10589646
-0.24888523 -0.20748566 -0.22731395 -0.09686785 -0.24766758 -0.27873942 -0.099914245 -0.28472897
-0.0876676 0.07346113 0.24647817 0.052085165 0.029951312 -0.060929663 0.06842258 -0.1901082
-0.0010143048 0.095586196 -0.19636214 0.03141267 0.14253515 0.10768046 0.12070646 0.20346427
-0.08614197 0.028563336 0.027221892 0.15573873 0.16690233 -0.0067801485 -0.33968624 -0.10739469
-0.17374071 -0.18265119 -0.21557003 -0.13228285 -0.26781133 -0.3054097 -0.1201954 -0.32646596
-0.0099507645 0.014373194 0.12079792 -0.049866088 -0.16130725 -0.15135413 0.13696153 -0.115396686
-0.16175497 0.10192718 0.1396219 -0.014747428 -0.05734748 -0.16429347 0.06338928 -0.06792729
-0.09770139 0.09917903 0.21907994 0.050335806 -0.013799777 -0.14826272 0.08163236 -0.15152603
00000000: b298 2c3d ce56 e7bc 3caf 263d e7d6 f8bd
00000010: e7c6 ff3c 32b9 013d 0e5e a83d 76fe b23c
00000020: a522 253e 0ae5 133e b03c de3d 4dd6 633b
00000030: 7eaa 26bd e9b8 c33d e849 493d 64a1 3a3e
00000040: 8374 d03e 449e 8e3e f7f9 73ba dc0f 4ebd
00000050: 7ab2 21bd a015 043e ce30 033d d8c9 923d
00000060: 2e6b d43d 8c4d f03d 611d 8c3d f294 e43d
00000070: 78d7 673d 3f43 813d 7ce8 903e b51e a03e
00000080: 237e 4a3e 9386 d23d a8c8 353d f5e8 793d
00000090: 8072 293e f192 1e3e e4f5 3a3e d96c 753e
000000a0: 70d6 a53e 2992 7b3e 33b0 b33d 8e6a 3bbd
000000b0: 9be1 58bb ed6d 8f3d f95a 973d 73e6 c63d
000000c0: bcc6 8c3d 36a3 10bd 07f6 0c3c 56eb cebd
000000d0: 06a4 e63d 07a9 963c bdba 6e3c f95e e53c
000000e0: 2b54 27be 3196 85bd 11ff cf3d 7cc0 583d
000000f0: 01f2 fa3c a98a c7bd d2f4 97bd beb4 40bd
00000100: 3f17 ae3e fa92 6d3e 0711 be3d b49a 0a3c
00000110: f6a3 d43d 7e0c 063e f5f9 c93c 4640 b03d
00000120: 8c57 1e3e 890a 4b3c 72da 42be 11b2 4bbc
00000130: 0675 1abe b9dd 3bbe f098 1dbd ab5b 353d
00000140: 4094 b33d 3770 c53a 71f6 9c3d 47d6 413d
00000150: 49ea dc3d 4517 6a3d 1fc1 bf3d 926a 8e3d
00000160: 48de f73c 3549 3ebd 87c8 b23d 0076 ba3d
00000170: 9702 173e a246 cb3d 9a26 6c3e 59b4 313e
00000180: 280c 183e 53db a73e 2ebc 453e a19b a8bc
00000190: 3218 663d 4b76 593e 3b8e ee3d 11af 613d
000001a0: df32 0c3d 6fb3 1d3e 49a7 97bd d579 1dbe
000001b0: adfc bdbd 194b 9abd cedf 39be 6ff8 53bd
000001c0: 770f 843e 1070 cc3d bd5e afbc fe46 5cbe
000001d0: 1183 29be b2f5 5fbc c964 07bd c043 19bd
000001e0: 450f 383e ecf5 8f3d e150 08be ea71 0fbe
000001f0: ee8e 90bd a5fd d1bc a821 49bd d082 cf3d
00000200: 15b5 06bb 8149 193e d494 943d e9b8 1e3e
00000210: 130b 1d3e 1b94 dd3d afa4 573d 1168 683e
00000220: 7bb6 49bd eefe ddbd d056 6abe c928 38bd
00000230: 2022 693c 238a 873d c096 80bd c001 5cbd
00000240: 1aaa 71be 51d0 b5bd 76da 47bc 82bb 0f3d
00000250: 358c fabd e6f2 39be c3f4 2bbe d626 97be
00000260: 9bde 30be 43a3 203c 19e9 463a ef55 9c3d
00000270: 4cd0 a63d 3b47 123d e54c a2be 8f1a 54be
00000280: caf4 3bbe cfb4 8dbd d34c febd 0f60 513b
00000290: af9b aa3d 854d 1a3c 8d56 ccbe 38c2 c7be
000002a0: a288 42be aa39 29bd 197d b2bd 7e58 023d
000002b0: d9c1 8e3d afc2 8c3c fedf 59be 1afc 60be
000002c0: 833a 2d3c 0831 babc 5c0b 81bc 6348 e43d
000002d0: 7a38 423e 6b12 973c fc88 a13d af5d 153e
000002e0: bd34 bb3d 7787 8f3d 48cb 4c3a 4dfd ce3d
000002f0: 10fd 173e 4ce8 423e 7b7d 083e 3ee0 d83d
00000300: c5db 7ebe 1f77 54be fdc4 68be a762 c6bd
00000310: 929c 7dbe efb6 8ebe d79f ccbd ffc7 91be
00000320: 128b b3bd ca72 963d c664 7c3e 4157 553d
00000330: 745c f53c 6291 79bd 2321 8c3d b9ab 42be
00000340: 6cf2 84ba b2c2 c33d 2813 49be 92aa 003d
00000350: bcf4 113e 9387 dc3d f334 f73d f058 503e
00000360: 336b b0bd a8fd e93c 7200 df3c f979 1f3e
00000370: 72e8 2a3e 022c debb 5beb adbe bff1 dbbd
00000380: 16e9 31be ea08 3bbe 64be 5cbe 2875 07be
00000390: 911e 89be a95e 9cbe 0229 f6bd 8c26 a7be
000003a0: 8808 23bc 8c7d 6b3c e664 f73d 6240 4cbd
000003b0: ba2d 25be 94fc 1abe a53f 0c3e 1955 ecbd
000003c0: 18a3 25be 33bf d03d 0bf9 0e3e 329f 71bc
000003d0: 31e5 6abd 8c3c 28be 3dd2 813d 771d 8bbd
000003e0: ab17 c8bd 601e cb3d 7e56 603e eb2c 4e3d
000003f0: 7618 62bc 2fd2 17be de2e a73d a429 1bbe

classifier.bias f4 [3]
0.14718676 -0.01422789 -0.22337009
00000000: 20b8 163e 191c 69bc 21bb 64be
